torch_cnn.pt (torch, 110043 bytes, 26 tensors)

conv1.weight f4 [32, 1, 80]
0	0x3d1b6b4d	0.037944127
1	0x3d5b8f30	0.05360335
2	0xbd6adf28	-0.057341725
3	0xbdb51cbf	-0.088433735
4	0xbdad4ae9	-0.084615536
5	0x3dae9d31	0.08526076
6	0xbbd051c4	-0.0063574035
7	0x3e013c5f	0.12620686
8	0xbd8c701d	-0.068573214
9	0xbc09f56e	-0.008420331
10	0x3cb278a7	0.021786047
11	0xbd138d5b	-0.03602348
12	0xbe3e2a7f	-0.18570898
13	0xbd6000df	-0.05468833
14	0xbc829ecb	-0.015944859
15	0x3cf14779	0.029453026
16	0x3d78f0ab	0.060776394
17	0x3db8368c	0.08994779
18	0xbd7f7bfe	-0.062374108
19	0xbba045a9	-0.0048911166
20	0x3dc5ff69	0.09667856
21	0x3e223551	0.15840651
22	0x3d02392e	0.031792812
23	0x3dd8914d	0.10574589
24	0x3d57c2e2	0.05267609
25	0xbd6201ad	-0.05517738
26	0x3e00d863	0.12582545
27	0xbdb2c103	-0.0872822
28	0xbd9aad18	-0.07552546
29	0xbd8fe300	-0.07025719
30	0xbddc41c0	-0.10754728
31	0x3da1450f	0.078745
32	0xbda3d68a	-0.079999045
33	0xbdbcd5ea	-0.09220488
34	0xbe2fcaed	-0.17167254
35	0xbe239060	-0.15973043
36	0xbd307957	-0.04308447
37	0x3ddee425	0.10883359
38	0x3ceb87ff	0.028751371
39	0x3d6f18cb	0.058373254
40	0xbcb8b49a	-0.022547055
41	0xbd7b1bc0	-0.06130576
42	0xbca87def	-0.020567862
43	0xbe16df4a	-0.14733616
44	0xbd202f39	-0.039107535
45	0xbd9a447b	-0.07532593
46	0x3d9eff42	0.0776353
47	0x3d4e48c9	0.050362382
48	0x3ccac4fc	0.024752133
49	0xbc0164bc	-0.007897552
50	0x3df27b3b	0.118399106
51	0x3e614f49	0.22002901
52	0x3d5cfacf	0.053950127
53	0xbc01c64c	-0.007920813
54	0x3d4574ad	0.048206974
55	0x3cfc6867	0.030811502
56	0xbcafecaf	-0.021475164
57	0xbe3792b5	-0.17927058
58	0xbd97acbe	-0.07405995
59	0xbe2564e6	-0.16151771
60	0xbc5574cc	-0.013028335
61	0x3d8c1b38	0.06841129
62	0x3a84da69	0.0010135892
63	0x3d78ff5f	0.060790416
64	0x3da47059	0.08029241
65	0x3dd4865f	0.10377192
66	0x3cdecf70	0.027198523
67	0xbc9d2852	-0.019184265
68	0xbd85d105	-0.06534008
69	0x3e16b067	0.1471573
70	0xbd228e42	-0.03968645
71	0x3b24b381	0.0025131407
72	0x3da4b8ac	0.08043036
73	0x3db42083	0.087952636
74	0x3d801d7f	0.06255626
75	0x3e0475ee	0.12935612
76	0x3ca9e386	0.020738374
77	0xbd1e65db	-0.038671356
78	0x3ce9c6eb	0.028537234
79	0xbd795197	-0.060868826
80	0xbda55b3f	-0.080740444
81	0x3d90a38b	0.07062443
82	0xbc117c3e	-0.008879719
83	0xbde2c4a5	-0.11072663
84	0x3d1b5b35	0.03792878
85	0xbd5ae213	-0.053438257
86	0x3c872f44	0.01650203
87	0xbc8ba902	-0.017048363
88	0x3d331e19	0.043729875
89	0xbd95ad92	-0.073084965
90	0x3e098ef1	0.13433434
91	0x3a280d9c	0.00064107194
92	0x3c63f768	0.013913967
93	0xbc86ec8e	-0.01647022
94	0xbe164137	-0.14673315
95	0xbd9bb386	-0.07602601
96	0x3d054793	0.03253896
97	0x3dc4770e	0.095930204
98	0xbd42c8aa	-0.04755465
99	0xbdd6b4bc	-0.10483691
100	0x3e2b9dff	0.1675949
101	0x3de6ccd9	0.1126954
102	0xbc0ead4c	-0.008708309
103	0x3be03342	0.006842048
104	0xbe165b09	-0.14683165
105	0x3cc50ab4	0.024052955
106	0x3b5f7adb	0.0034100327
107	0xbdf5a9d3	-0.11995282
108	0xbd003db0	-0.03130883
109	0x3ca7344c	0.02041068
110	0xbd980acd	-0.07423935
111	0x3d96a0fa	0.073549226
112	0x3c8f71bd	0.01751029
113	0x3dc48ec9	0.095975466
114	0x3d46a71b	0.048499208
115	0xbd990868	-0.074723065
116	0xbe062812	-0.13101223
117	0x3d7dd900	0.061974525
118	0xbbeca903	-0.007222296
119	0x3dad0047	0.084473185
120	0x3dd0fa02	0.10203935
121	0x3d07e7fa	0.033180214
122	0xbcf64987	-0.030064357
123	0x3d5ac7e4	0.053413287
124	0xbdbe1d58	-0.092829406
125	0xbdc0ce68	-0.09414369
126	0xbd7041a4	-0.05865635
127	0xbd80fcc6	-0.06298213
128	0xbd93989d	-0.07206843
129	0xbe25fa28	-0.16208708
130	0xbd8c3531	-0.06846083
131	0x3c130fa5	0.008975898
132	0xbe23610d	-0.1595499
133	0xbd7a53a1	-0.06111491
134	0x3dc88d6e	0.097926006
135	0x3cd423ec	0.025896035
136	0x3c9aeaa6	0.018910717
137	0x3d9cc3b1	0.07654513
138	0x3d3e7470	0.046497762
139	0x3dae3238	0.08505672
140	0x3e285705	0.16439445
141	0xbcdc8373	-0.026918149
142	0x3e110d0c	0.14165133
143	0xbcb5f83d	-0.022213096
144	0xbe0268d3	-0.127353
145	0xbd320053	-0.04345734
146	0x3db4b9ed	0.08824525
147	0xbcdeaac8	-0.027181044
148	0xbdfbd6e9	-0.1229685
149	0xbd6e0403	-0.058109295
150	0xbe0c2970	-0.13687682
151	0xbdc3d8a9	-0.09562809
152	0x3d165365	0.036700625
153	0x3e1181b7	0.14209639
154	0x3dbaed77	0.09127324
155	0xbe10afd3	-0.14129572
156	0xbbdd82b1	-0.0067599644
157	0xbe0f1dc7	-0.13976203
158	0x3d694bb4	0.05695696
159	0xbc0b7bdf	-0.00851342
160	0xbc8ad5ea	-0.016947705
161	0xbd75d394	-0.06001623
162	0xbdb744d5	-0.089486755
163	0xbdbede7c	-0.09319779
164	0xbd3440e1	-0.044007186
165	0x3cad5e24	0.021163054
166	0xba67ed91	-0.0008847351
167	0x3ca5bd90	0.020231992
168	0xbe2736f6	-0.1632956
169	0x3cd6bc10	0.026212722
170	0x3dec2130	0.115297675
171	0xbbe748ab	-0.0070582232
172	0x3e0ec958	0.13943994
173	0x3d1584d5	0.03650363
174	0xbddbf170	-0.1073941
175	0x3d423e05	0.047422428
176	0xbb6b92e9	-0.003594572
177	0xbd306b2b	-0.043070953
178	0x3da223ee	0.07917009
179	0xbe0288c8	-0.1274749
180	0xbc2cdfce	-0.010551406
181	0x3d67b4e7	0.056569006
182	0x3b919ed3	0.004443982
183	0x3c57b82d	0.0131664695
184	0x3dc5a624	0.096508294
185	0x3ddc6563	0.107615255
186	0xbdb440b4	-0.08801404
187	0xbd5b6f9f	-0.053573247
188	0xbd793602	-0.06084252
189	0x3d8b9cd2	0.068170205
190	0x3db6aeb5	0.089200415
191	0x3e222de3	0.15837817
192	0xbd8b0106	-0.067873046
193	0x3d6fd6fa	0.058554627
194	0xbd6842d0	-0.056704342
195	0xbc77504a	-0.015094826
196	0xbd9049c3	-0.07045319
197	0x3dd08cdd	0.101831175
198	0xbd919d1f	-0.071100466
199	0x3d0fc199	0.03509674
200	0x3dcd60f3	0.10028257
201	0x3dac5f4e	0.084166154
202	0xbddd2abf	-0.10799169
203	0xbd828ded	-0.063747264
204	0xbd6256f6	-0.055258714
205	0x3d7fc42a	0.062442936
206	0xbdf49fdf	-0.119445555
207	0x3e21ff64	0.1582008
208	0xbdb7a722	-0.08967425
209	0x3d2e872d	0.042609382
210	0x3d6efdf1	0.058347646
211	0xbdc099fa	-0.09404369
212	0xbcd8b44e	-0.026453163
213	0xbd9f2c78	-0.077721536
214	0x3ce9fc9c	0.028562836
215	0xbc939729	-0.018016415
216	0xbe52e2b0	-0.20594287
217	0xbe0c6916	-0.13711962
218	0x3de8c493	0.113656186
219	0xbdde0b3d	-0.10841987
220	0xbd14d1f9	-0.036333058
221	0x3e06b4f3	0.13154964
222	0x3c5a00ac	0.013305824
223	0x3d861803	0.065475486
224	0xbd79e84f	-0.061012562
225	0x3d8598b8	0.065232694
226	0x3c09d055	0.008411487
227	0xbd807462	-0.06272198
228	0xbdf5861e	-0.119884714
229	0xbd77e6c2	-0.060522802
230	0xbd5741a3	-0.05255283
231	0x3e0ac269	0.13550724
232	0xba9578d3	-0.0011403806
233	0x3e0a1850	0.13485837
234	0x3da75832	0.08171119
235	0xbdc0129e	-0.09378551
236	0x3df53d16	0.11974542
237	0xbd8dc0d4	-0.06921545
238	0xbd36601c	-0.04452525
239	0x3d99a32d	0.075018264
240	0xbc2cdf75	-0.010551323
241	0x3d773032	0.060348697
242	0xbd971c3c	-0.07378432
243	0xbcbda9cf	-0.02315226
244	0xbc35b39a	-0.011090184
245	0xbe27c131	-0.1638229
246	0x3d40a8cc	0.047035977
247	0xbd192594	-0.037389353
248	0x3d008151	0.031373326
249	0x3cdae30f	0.026719598
250	0xbdf9903b	-0.12185713
251	0xbc4c5f8c	-0.012473952
252	0x3d3cf455	0.04613145
253	0xbd4a5446	-0.049396776
254	0xbd0850b3	-0.033280086
255	0xbcc71a27	-0.024304463

conv1.bias f4 [32]
0	0xbc2a70bf	-0.010402857
1	0xbd43c7e6	-0.04779806
2	0x3c74ec97	0.014948986
3	0x3c38439f	0.011246591
4	0x3c57b7d4	0.013166387
5	0x3e01281a	0.12612954
6	0xbc321f3d	-0.010871706
7	0xbcaa8884	-0.020817049
8	0x3d004c8f	0.031323012
9	0xbd4843eb	-0.048892897
10	0xbd1b5892	-0.037926264
11	0x3b6c9169	0.0036097413
12	0x3cb4ddb5	0.022078374
13	0x3cb0d5d1	0.02158633
14	0x3deba73d	0.115065075
15	0x3afd7df6	0.0019339907
16	0xbd08c250	-0.033388436
17	0xbdb4b1d3	-0.0882298
18	0x3c54c06c	0.01298533
19	0x3ce4937d	0.02790236
20	0xbc4a28b8	-0.01233881
21	0x3c26f052	0.010189133
22	0xbcade1f6	-0.02122591
23	0x3cb114fd	0.021616453
24	0x3d673171	0.056443635
25	0x3c37a280	0.011208177
26	0xbdae7f37	-0.08520358
27	0x3b92d932	0.004481458
28	0xbd94740a	-0.07248695
29	0x3c974c48	0.01846899
30	0x3d503de1	0.050840262
31	0xbc534270	-0.012894258

bn1.weight f4 [32]
0	0x3f731607	0.94955486
1	0x3f7d65cf	0.9898347
2	0x3f7f07ec	0.9962146
3	0x3f83cf8a	1.0297711
4	0x3f742ee8	0.95384073
5	0x3f7f10d3	0.99635047
6	0x3f6b8c4d	0.92010957
7	0x3f74d9f1	0.9564505
8	0x3f833ac9	1.0252315
9	0x3f74c1b5	0.95608073
10	0x3f7aace7	0.9792008
11	0x3f7980aa	0.9746195
12	0x3f7b0a8d	0.98062974
13	0x3f7a9bba	0.9789387
14	0x3f6d08ee	0.9259175
15	0x3f741ae3	0.95353526
16	0x3f834ca7	1.0257767
17	0x3f6e6032	0.9311553
18	0x3f80fb24	1.0076642
19	0x3f7d4784	0.9893725
20	0x3f7cc51e	0.98738277
21	0x3f7ebbb9	0.9950519
22	0x3f819fdf	1.0126914
23	0x3f700be6	0.93768156
24	0x3f7d52db	0.9895455
25	0x3f83d24a	1.029855
26	0x3f81b50f	1.013338
27	0x3f78e679	0.97226673
28	0x3f78b783	0.97155017
29	0x3f6da2f4	0.9282677
30	0x3f82832e	1.0196283
31	0x3f725167	0.9465546

bn1.bias f4 [32]
0	0x3d58abf4	0.052898362
1	0x3e676b1f	0.22599457
2	0xbd268288	-0.040651828
3	0x3e3a6d6e	0.18205807
4	0x3cad8fa6	0.021186661
5	0x3b911ad4	0.004428247
6	0x3d840783	0.06446745
7	0x3d733661	0.05937803
8	0x3d16741a	0.036731817
9	0xba078b3f	-0.00051705906
10	0x3e050d79	0.1299342
11	0xbe3a103a	-0.18170252
12	0x3e0a6fa3	0.13519149
13	0xbd46b202	-0.048509605
14	0x3c73d157	0.0148814535
15	0x3d50ffdb	0.051025253
16	0x3ca02180	0.019547224
17	0x3dd2bb0c	0.102895826
18	0xbcdb981e	-0.026805934
19	0x3da91fce	0.082580194
20	0xbd5d5c7f	-0.05404329
21	0x3d906e58	0.070522964
22	0x3e1906fc	0.1494407
23	0x3d93a8d0	0.07209933
24	0xbe03ef57	-0.1288427
25	0x3ddab703	0.10679438
26	0x3dc4cc44	0.09609273
27	0x3e33fd2d	0.17577048
28	0x3d6db4fb	0.058033925
29	0x3e26c483	0.16285901
30	0xbdd4b60f	-0.103862874
31	0x3d8a2d70	0.06746948

bn1.running_mean f4 [32]
0	0xbc27c9a7	-0.010240949
1	0xbd4405c8	-0.047857076
2	0x3c725b01	0.014792205
3	0x3c3e2cb0	0.011607334
4	0x3c534aa4	0.012896214
5	0x3e007d97	0.12547909
6	0xbc1c00a6	-0.009521639
7	0xbca94ae4	-0.020665593
8	0x3d030537	0.031987395
9	0xbd419cd2	-0.047268696
10	0xbd1db076	-0.038498364
11	0x3b8ab2df	0.004232749
12	0x3cf11992	0.029431138
13	0x3cad5b4f	0.021161703
14	0x3debac9a	0.115075305
15	0x3b0d7547	0.0021584795
16	0xbd0b8426	-0.034061573
17	0xbdb571cf	-0.08859598
18	0x3c5b372c	0.013379853
19	0x3ce5dd74	0.028059699
20	0xbc6c206a	-0.014412025
21	0x3c2a374b	0.010389159
22	0xbcaa3408	-0.020776764
23	0x3cb2ab44	0.021810181
24	0x3d65dbd7	0.05611786
25	0x3c331e18	0.010932468
26	0xbdadf150	-0.08493292
27	0x3b90fded	0.0044248016
28	0xbd945065	-0.072418965
29	0x3c989f12	0.018630538
30	0x3d578109	0.052613292
31	0xbc6b899e	-0.014376072

bn1.running_var f4 [32]
0	0x39accb41	0.00032957832
1	0x399fadb0	0.0003045625
2	0x397eddf8	0.00024306017
3	0x3960f250	0.00021452573
4	0x39a01a54	0.00030537194
5	0x39a3698e	0.00031168427
6	0x397f7ff1	0.00024366357
7	0x39914a81	0.00027712065
8	0x398f8c99	0.0002737984
9	0x39919b0c	0.00027772074
10	0x39869451	0.00025668976
11	0x3993df91	0.00028204595
12	0x398dc64a	0.00027041353
13	0x398cba02	0.00026841467
14	0x39802af8	0.00024446077
15	0x39a17bbc	0.00030800502
16	0x399430e3	0.00028265183
17	0x398954de	0.00026193907
18	0x399c9320	0.00029864255
19	0x39853ccd	0.00025413037
20	0x396fe2f6	0.00022877366
21	0x39ac05bd	0.00032810672
22	0x39907ae9	0.00027557396
23	0x3984cd76	0.00025330082
24	0x398062a0	0.00024487544
25	0x39707393	0.00022931238
26	0x397b64c5	0.00023974765
27	0x39984d9f	0.0002904953
28	0x398ec14e	0.00027228374
29	0x398152a7	0.00024666378
30	0x39a70573	0.00031856782
31	0x3997f5e5	0.0002898417

conv2.weight f4 [32, 32, 3]
0	0xbd69ef73	-0.057113122
1	0xbd472380	-0.04861784
2	0xbd556288	-0.05209592
3	0x3b8402c1	0.0040286486
4	0x3df063c5	0.117377795
5	0x3d49e599	0.049291227
6	0x3d1d99f0	0.038476884
7	0x3c59cbfa	0.013293261
8	0x3e2292cc	0.15876311
9	0xbd2e8549	-0.04260758
10	0xbdc6f711	-0.09715093
11	0xbd7d7f06	-0.061888717
12	0xbd163c6e	-0.036678724
13	0xbc82efa1	-0.015983405
14	0x3d10ccf0	0.035351694
15	0xbd4aab22	-0.04947961
16	0x3c42c43d	0.011887607
17	0xbdbdf7e5	-0.09275798
18	0xbd92be6c	-0.07165226
19	0xbd4eba72	-0.050470777
20	0xbe0fc9b6	-0.1404179
21	0x3bc31b9b	0.0059542186
22	0xbe2d47c4	-0.16921908
23	0xbd9c8c75	-0.076439776
24	0xbb43ed51	-0.002989609
25	0xbe4129e4	-0.18863636
26	0x3dc7c40c	0.0975419
27	0x3de4bae6	0.111684605
28	0xbd2b7f6e	-0.041869573
29	0x3c168c12	0.009188669
30	0x3d92b2ed	0.07163034
31	0xbb561b5c	-0.0032670116
32	0xbc8405ac	-0.016115986
33	0xbdb20f50	-0.08694327
34	0x3e2f656c	0.17128533
35	0xbde41239	-0.11136288
36	0x3c3f54d6	0.011677941
37	0x3babdc31	0.0052447547
38	0xbd35c46b	-0.044376772
39	0xbce84140	-0.028351426
40	0xbe053006	-0.130066
41	0x3d8593d3	0.06522336
42	0x3d00473c	0.031317934
43	0x3de0c422	0.10974909
44	0x3c0e106a	0.008670906
45	0x3e02013a	0.1269578
46	0xbd0a7ca2	-0.033810265
47	0xbd8b04b7	-0.06788009
48	0xbc619d7d	-0.013770458
49	0xbd6b9653	-0.057516407
50	0x3c848854	0.016178288
51	0xbddaccec	-0.10683617
52	0x3d925434	0.07144967
53	0xbc00e94c	-0.007868122
54	0x3c9accd5	0.0188965
55	0x3cad7e9d	0.021178538
56	0x3d9811c5	0.07425264
57	0x3d906f6a	0.070525005
58	0x3d989795	0.07450787
59	0x3d16aa93	0.036783766
60	0x3db0b7a0	0.08628774
61	0xbe118835	-0.14212115
62	0x3de02b83	0.10945799
63	0xbd333041	-0.04374719
64	0xbc6c31eb	-0.014416198
65	0xbd147b4e	-0.036250405
66	0x3e088d91	0.13335253
67	0x3df99277	0.12186139
68	0xbdb46666	-0.088085935
69	0x3ddcde98	0.10784644
70	0x3ddda32b	0.108221374
71	0xbc8b822a	-0.01702984
72	0xbc558d19	-0.013034129
73	0x3d9bde44	0.07610753
74	0x3da18ba3	0.07887962
75	0x3d342315	0.04397877
76	0xbcac0c6d	-0.021002019
77	0xbb969953	-0.0045959144
78	0x3daf38c1	0.08555747
79	0x3c3188ab	0.010835807
80	0xbdb06930	-0.08613813
81	0x3d8346ba	0.064099744
82	0xbe04c996	-0.12967524
83	0x3ca524df	0.020159183
84	0x3d3727e3	0.044715773
85	0x3d307b95	0.043086607
86	0xbd83e3ba	-0.0643992
87	0x3e1d13a1	0.15339519
88	0xbdc50c7a	-0.0962152
89	0x3cdd8a77	0.027043564
90	0xbdb7f9a1	-0.0898316
91	0x3e254c3e	0.16142365
92	0xbe055886	-0.1302205
93	0x3d9dddc9	0.07708318
94	0xbdfbd233	-0.12295952
95	0xbd7f7cde	-0.062374942
96	0x3c878aa1	0.016545596
97	0xbdeff448	-0.11716515
98	0x3d9ea4de	0.0774629
99	0x3d00f1b2	0.0314805
100	0xbda1c4b3	-0.078988455
101	0xbd5d1834	-0.05397816
102	0x3d9d4be0	0.07680488
103	0x3c51c0cb	0.012802313
104	0x3da7704f	0.08175718
105	0xbda64df4	-0.08120337
106	0x3be9d503	0.0071359887
107	0x3dbee611	0.093212254
108	0x3cc37175	0.023857811
109	0xbca5ba3a	-0.020230401
110	0x3d27c7c2	0.04096199
111	0xbdf6c5b7	-0.1204943
112	0xbe1a4e48	-0.15068924
113	0xbce2b443	-0.027673846
114	0xbd132380	-0.035922527
115	0x3d6e11e8	0.058122545
116	0x3d47fb93	0.048823904
117	0x3db186a8	0.08668262
118	0xbd2e27d7	-0.042518463
119	0xbdec9683	-0.11552145
120	0xbe1d2767	-0.15347062
121	0x3b4e4196	0.0031472198
122	0xbd7c6e49	-0.061628614
123	0xbd0ae1e5	-0.033906836
124	0xbd8c3972	-0.06846894
125	0xbdb1dead	-0.0868505
126	0xbb1a7eda	-0.0023574145
127	0xbdc45bf2	-0.0958785
128	0xbc7d3614	-0.015454788
129	0x3e318865	0.17337187
130	0xbd575e76	-0.05258032
131	0x3d2533d2	0.040332623
132	0xbc963a19	-0.01833825
133	0x39757557	0.00023408733
134	0xbceaee12	-0.028677974
135	0xbdf677a3	-0.12034538
136	0xbdf3ec18	-0.11910266
137	0x3d3e2017	0.046417322
138	0xbda5379e	-0.08067249
139	0xbd63fd8d	-0.055661727
140	0x3dff59e4	0.12468317
141	0x3d1d8168	0.03845349
142	0xbda50ee1	-0.080594786
143	0xbc453d17	-0.012038491
144	0xbd927f81	-0.07153226
145	0xbe0eb537	-0.13936315
146	0x3e082645	0.13295849
147	0x3dd7f443	0.10544636
148	0xbd1da724	-0.038489476
149	0xbde5e6ef	-0.11225688
150	0xba64927a	-0.00087193365
151	0xbe010422	-0.12599233
152	0x3d35cfff	0.044387814
153	0xbcb56f80	-0.022147894
154	0xbca96b29	-0.02068098
155	0xbd1eb70c	-0.038748786
156	0x3c82122f	0.015877811
157	0x3db3e858	0.087845504
158	0x3d06c5a8	0.032903343
159	0xbd7430c9	-0.059616838
160	0xbcc25217	-0.023720784
161	0xbd2a5b08	-0.04159072
162	0xbdc21473	-0.09476557
163	0x3e05d14c	0.13068122
164	0xbdbe0b4d	-0.09279499
165	0x3d8e55ed	0.06949983
166	0xbd320e3d	-0.04347061
167	0x3d41c9ce	0.047311597
168	0x3dd1b137	0.10238879
169	0xbdcbd94a	-0.09953554
170	0x3d91599c	0.0709717
171	0xbd0edf26	-0.03488078
172	0xbd3ae4b6	-0.045628272
173	0xbc38ed39	-0.011287027
174	0x3d911bf7	0.07085412
175	0x3e0a5fb2	0.13513067
176	0x3d6917bb	0.056907397
177	0xbd454fad	-0.048171688
178	0xbde9c82d	-0.114151336
179	0x3dbbe244	0.09174016
180	0xbdcf1f0c	-0.101133436
181	0x3c86fef1	0.016478987
182	0xbdb76959	-0.0895564
183	0x3da2f07d	0.07956026
184	0x3d82c0e2	0.06384446
185	0x3e200a00	0.15628815
186	0x3d5208d3	0.051277947
187	0x3d8e8beb	0.06960281
188	0xbe0e41f3	-0.13892345
189	0x3d25f02a	0.04051224
190	0xbd169020	-0.036758542
191	0x3ce85c98	0.028364465
192	0xbd777b40	-0.060420275
193	0xbdb54f41	-0.08853007
194	0xbd29acf8	-0.04142472
195	0x3de59850	0.11210692
196	0x3ccb1a74	0.024792887
197	0x3b181650	0.0023206659
198	0x3e10b008	0.1412965
199	0x3d830337	0.063970976
200	0x3b545d58	0.003240427
201	0xbd2d6dac	-0.04234092
202	0x3a0c97c4	0.0005363191
203	0x3e2865f2	0.16445139
204	0x3cbc8083	0.023010498
205	0x3d4ff021	0.050766114
206	0x3ddd7f49	0.10815293
207	0xbd7dd010	-0.061966002
208	0xbdb878f1	-0.09007443
209	0xbd7f2fe7	-0.062301543
210	0x3b65b169	0.0035048372
211	0x3ba1ffaf	0.00494381
212	0x3d08e585	0.033422012
213	0x3d36d357	0.044635143
214	0x3d0cae0c	0.03434567
215	0xbcb26c56	-0.021780174
216	0xbce7a0f0	-0.028274983
217	0x3be9d2cb	0.007135724
218	0x3d539d16	0.05166348
219	0x3cb259e4	0.021771379
220	0xbc2e67d9	-0.010644876
221	0x3dec6253	0.11542191
222	0x3d4d3d51	0.050107304
223	0x3d8a53f2	0.067542925
224	0x3c49b263	0.012310597
225	0xbd239a21	-0.03994191
226	0x3bdc91ec	0.0067312624
227	0x3d8d4543	0.06897976
228	0xbda375cf	-0.079814546
229	0x3e2585c9	0.16164316
230	0x3d368475	0.044559915
231	0x3d45ff28	0.04833904
232	0x3cf33f37	0.02969323
233	0x3cd6a0b4	0.026199676
234	0xbd7b1dbb	-0.06130765
235	0xbcd8ee79	-0.0264809
236	0x3db7256a	0.08942683
237	0xbca0378b	-0.019557735
238	0xbc03b80c	-0.008039486
239	0x3d2cfe5e	0.04223477
240	0x3e01b377	0.12666117
241	0x3e1006b6	0.1406506
242	0x3dbb0e8a	0.091336325
243	0x3dd1000d	0.10205088
244	0xbd615142	-0.055009134
245	0x3d490479	0.04907653
246	0x3b91d31e	0.004450216
247	0xbafed707	-0.0019442745
248	0x3c26aa11	0.010172383
249	0xbbe941dc	-0.0071184468
250	0xbb9cae54	-0.0047815237
251	0x3b1d5e2f	0.0024012437
252	0xbbea9f9a	-0.0071601393
253	0xbd220993	-0.039559912
254	0xbda0414a	-0.07824953
255	0x3dc3c06a	0.095581844

conv2.bias f4 [32]
0	0x3a57b97c	0.00082292384
1	0xbb08e0e3	-0.0020885996
2	0x37c560f4	2.3529377e-05
3	0x3a0fc909	0.00054849737
4	0x39b4223d	0.00034357785
5	0x3a3770a2	0.00069976796
6	0xb98503b3	-0.00025370493
7	0x39ce4164	0.00039340102
8	0xba827d38	-0.0009955531
9	0x3b6dbe3c	0.0036276719
10	0xbc3b8f47	-0.011447734
11	0x3c06efff	0.00823593
12	0xba1164cc	-0.0005546331
13	0xb932e4ca	-0.00017060633
14	0xb93f28a2	-0.00018230316
15	0xba8f386e	-0.0010926852
16	0x3b1f0871	0.0024266506
17	0x39770a47	0.00023559584
18	0x39d38cf0	0.00040350063
19	0xb6a40810	-4.8885195e-06
20	0x38be8ff9	9.086723e-05
21	0xba992f51	-0.0011687075
22	0xb651ae00	-3.1244708e-06
23	0xbab76aef	-0.0013993661
24	0x3634b5c0	2.6927883e-06
25	0xb7485d80	-1.1942699e-05
26	0x3980c26a	0.00024558912
27	0x3a1b1194	0.00059154
28	0xba841305	-0.0010076469
29	0x389f80f2	7.605729e-05
30	0xbaf40dd8	-0.0018619848
31	0x3908df66	0.00013053193

bn2.weight f4 [32]
0	0x3f83fa5a	1.0310776
1	0x3f9654a4	1.174458
2	0x3f53a478	0.82672834
3	0x3f83fec6	1.0312126
4	0x3f6b17a4	0.9183295
5	0x3f788f50	0.9709368
6	0x3f88548a	1.0650799
7	0x3f873a34	1.0564637
8	0x3f8b5183	1.088425
9	0x3f91129d	1.1333805
10	0x3f86011b	1.0469087
11	0x3f6670ca	0.9001585
12	0x3f7de985	0.9918445
13	0x3f7ac055	0.97949725
14	0x3f7bd6de	0.98374736
15	0x3f86448c	1.0489669
16	0x3f6ca592	0.9244014
17	0x3f6df1a3	0.92946833
18	0x3f413a97	0.75480026
19	0x3f7df267	0.99198
20	0x3f4d9d74	0.8031838
21	0x3f83ed69	1.0306827
22	0x3f697d33	0.91206664
23	0x3f71e032	0.9448272
24	0x3f5236f0	0.8211508
25	0x3f754a3d	0.95816404
26	0x3f616554	0.8804524
27	0x3f8278a5	1.0193068
28	0x3f7667ac	0.9625194
29	0x3f8244d9	1.0177261
30	0x3f89e145	1.0771872
31	0x3f629595	0.88509494

bn2.bias f4 [32]
0	0x3dcf8978	0.10133642
1	0x3d7fc312	0.062441893
2	0xbd8bd1a3	-0.068270944
3	0xbd8e2be8	-0.06941968
4	0x3e0121b0	0.12610507
5	0x3dd38bd5	0.10329405
6	0x3e28b3fc	0.16474909
7	0x3d88d164	0.06680563
8	0x3e64f752	0.2235997
9	0x3c069d9b	0.008216287
10	0x3b57abb8	0.0032908749
11	0xbcda7bae	-0.026670303
12	0x3da5d7a4	0.08097771
13	0xbcad3a73	-0.021146035
14	0x3e0cb26c	0.13739938
15	0x3cce106f	0.02515432
16	0x3e017868	0.12643588
17	0x3e25e99b	0.16202395
18	0xbd097478	-0.03355834
19	0x3e021ef3	0.12707119
20	0xbd0a24d4	-0.03372653
21	0x3e1e0be2	0.1543422
22	0x3e3896c8	0.18026268
23	0x3de219cc	0.110400766
24	0xbe03e4f4	-0.12880307
25	0xbc811577	-0.015757306
26	0xbe0a1406	-0.13484201
27	0x3e07da7e	0.13266942
28	0x3b38a334	0.0028173449
29	0x3db03be3	0.086051725
30	0x3d3e2d00	0.046429634
31	0x3e1614ca	0.14656368

bn2.running_mean f4 [32]
0	0xbd0d6d0d	-0.034527827
1	0xbf1590c2	-0.5842401
2	0x3fa64f4e	1.2992952
3	0x3e13e0c7	0.14441215
4	0xbc8c0e71	-0.01709673
5	0x3eb13649	0.3461173
6	0xbdfade79	-0.122494645
7	0xbea4e474	-0.32205546
8	0xbe8c6964	-0.27424157
9	0xbf480d00	-0.78144836
10	0xbf45d41c	-0.7727678
11	0x3f24853c	0.642658
12	0xbf81b103	-1.0132145
13	0x3cdbc795	0.026828567
14	0xbd931e6a	-0.071835354
15	0xbf06d409	-0.5266729
16	0xbebc9910	-0.36835527
17	0xbe90b8bc	-0.2826594
18	0x3eca085e	0.3945951
19	0x37d10100	2.4915207e-05
20	0x3f0089a4	0.5021002
21	0xbed42a83	-0.41438684
22	0xbeef7839	-0.4677141
23	0xbdddb6b2	-0.10825862
24	0x3f495448	0.7864423
25	0x3deced07	0.11568647
26	0x3e1140d4	0.14184886
27	0xbe68e451	-0.22743346
28	0x3e069302	0.13142017
29	0x3d9996ef	0.074994914
30	0xbf5cf8f6	-0.86317384
31	0x3e7b7423	0.24556021

bn2.running_var f4 [32]
0	0x3ea1e0ec	0.31616914
1	0x3f465447	0.7747235
2	0x4021f778	2.5307293
3	0x3ea23320	0.3167963
4	0x3e87206b	0.2639192
5	0x3ede7054	0.43445075
6	0x3e869d4b	0.2629188
7	0x3ec8f7e4	0.39251626
8	0x3ebec720	0.37261295
9	0x3fc4753c	1.5348277
10	0x3fb1cd14	1.389071
11	0x3f47e716	0.78086984
12	0x3fc4704d	1.5346771
13	0x3e95be3b	0.29246697
14	0x3e91e373	0.28493842
15	0x3f46f9db	0.77725
16	0x3ec35812	0.3815313
17	0x3e9d316a	0.30701762
18	0x3f19cdf6	0.60079896
19	0x3e8f1128	0.27942777
20	0x3f00939d	0.5022524
21	0x3eb72ec9	0.35777882
22	0x3f1de4ae	0.6167706
23	0x3e9af8c2	0.30267912
24	0x3fb3a87f	1.4035796
25	0x3e8be224	0.2732097
26	0x3e9dab3a	0.30794698
27	0x3eb5a1c3	0.35474977
28	0x3e83b4a7	0.25723764
29	0x3eb51efa	0.35375196
30	0x3f998429	1.1993457
31	0x3e8c944b	0.2745689

conv3.weight f4 [64, 32, 3]
0	0x3d9a72f6	0.07541458
1	0x3d7d0527	0.06177249
2	0x3cd0f89d	0.025509173
3	0x3dd7d829	0.10539276
4	0x3cb809e8	0.022465661
5	0xbd687446	-0.056751512
6	0xbcacc20d	-0.021088624
7	0x3d9a3bd6	0.07530944
8	0xbd2efbf7	-0.04272076
9	0xbdcd7bcd	-0.10033379
10	0xbd3334bf	-0.043751474
11	0xbd9d425a	-0.07678671
12	0x3ca4c5d5	0.020113865
13	0xbd6880cf	-0.056763466
14	0x3cf030c7	0.029320134
15	0x3d50a40c	0.050937697
16	0xbaaafc6c	-0.0013045198
17	0x3d44eb07	0.048075702
18	0xbd6b447a	-0.05743835
19	0xbbcee6fc	-0.0063141566
20	0xbd562438	-0.052280635
21	0x3dd8bddc	0.10583088
22	0xbd496de2	-0.049177058
23	0x3d81f953	0.06346383
24	0x3d61d471	0.05513424
25	0xbd514907	-0.051095035
26	0x3ca604db	0.020265987
27	0xbdb8431f	-0.08997177
28	0xbe10af59	-0.1412939
29	0xbdc9804b	-0.09838923
30	0x3d1f9905	0.03896429
31	0xbd7a20c9	-0.061066423
32	0xbd0c2627	-0.034216072
33	0x3c973165	0.01845617
34	0x3b76769a	0.0037607313
35	0xbc4920f7	-0.012275926
36	0xbd5351da	-0.05159173
37	0xbddef059	-0.108856864
38	0xbd915027	-0.07095366
39	0x3dc1710b	0.09445389
40	0xbad563d8	-0.0016280366
41	0x3d9376a2	0.07200362
42	0x3d844a56	0.06459491
43	0xbd26e9c7	-0.04075029
44	0x3db61307	0.08890348
45	0x3daac4ef	0.08338343
46	0xbdbdc327	-0.09265738
47	0xbd304818	-0.043037504
48	0xbcd01066	-0.025398444
49	0x3dc96f30	0.098356605
50	0x3d8dc93e	0.069231495
51	0xbc6de08f	-0.014518871
52	0x3e0497ea	0.12948576
53	0x3b6137c6	0.003436552
54	0xbcfb0477	-0.030641777
55	0x3d5aadcd	0.053388406
56	0xbcb3bd06	-0.02194072
57	0x3de2e252	0.110783234
58	0x3ddcbbb9	0.10777993
59	0xbd7d7daf	-0.06188744
60	0xbd5f7d97	-0.05456313
61	0x3b44c75a	0.003002605
62	0x3d618adb	0.055064064
63	0x3ca85c3a	0.02055179
64	0xbd6fa288	-0.05850461
65	0x3d83e7f2	0.064407244
66	0xbdb91c2f	-0.09038579
67	0x3d33259e	0.043737046
68	0x3d5e7cdc	0.054318294
69	0x3d721d35	0.059109885
70	0x3dbd77c7	0.09251361
71	0x3d038e09	0.032117877
72	0xbcab629c	-0.020921044
73	0x3c555d35	0.013022711
74	0x3ba0fd08	0.004912976
75	0x3d14d33f	0.036334272
76	0xbd497b94	-0.04919012
77	0x3dcfb80e	0.101425275
78	0xbd69b438	-0.057056636
79	0xbdd6c897	-0.10487478
80	0xbdb20628	-0.086925805
81	0xbd935c78	-0.071953714
82	0xbd305176	-0.043046437
83	0x3d0d029c	0.034426317
84	0x3d0ee8c6	0.03488996
85	0xbdbc3ff8	-0.091918886
86	0x3d8fb3f4	0.07016745
87	0x3c9cf5d1	0.019160183
88	0xbc4d59c9	-0.0125336135
89	0x3daf7353	0.08566918
90	0x3d7d98d5	0.06191333
91	0xbdbb1ace	-0.09135972
92	0xbdbdd5a0	-0.09269261
93	0xbcb0a98f	-0.021565227
94	0x3ddabfda	0.10681124
95	0x3d9e9a24	0.07744244
96	0xbcb9d586	-0.022684824
97	0x3e09150a	0.13386932
98	0xbd4a2540	-0.04935193
99	0xbdafe284	-0.08588126
100	0x3db7a4e3	0.089669965
101	0xbcc82be6	-0.024434995
102	0x3cdb6899	0.026783274
103	0x3e02c77b	0.12771408
104	0x3b64fe4a	0.0034941607
105	0xbd99eb9d	-0.07515643
106	0x3cd07c03	0.025449758
107	0xbdc490f5	-0.09597961
108	0xbd437ae3	-0.047724616
109	0x3dbd88a4	0.09254578
110	0xbda186bd	-0.078870274
111	0x3c8ab1b7	0.016930444
112	0xbd742e7c	-0.059614643
113	0x3db13a47	0.08653694
114	0xbbc67f31	-0.006057643
115	0x3c652379	0.013985508
116	0xbd39ea37	-0.04538938
117	0x3da456d1	0.080243714
118	0xbd2302da	-0.03979764
119	0xbc99a431	-0.01875505
120	0xbc44fbd2	-0.012022929
121	0x3de15ee7	0.11004429
122	0x3cd949fe	0.02652454
123	0xbd8e8b7e	-0.069602
124	0xbb2915d4	-0.0025800364
125	0x3d896fad	0.067107536
126	0xbcf1a3ee	-0.029497113
127	0xbd986be3	-0.07442453
128	0xbd96d3f4	-0.073646456
129	0x3c802564	0.01564283
130	0x3d997055	0.07492129
131	0xbd057712	-0.032584257
132	0xbcf2b2c1	-0.029626252
133	0x3a298c8a	0.00064677803
134	0x3c5d77ca	0.0135173295
135	0x3de22c01	0.11043549
136	0x3bb3e09f	0.0054894234
137	0xbc20849a	-0.00979724
138	0xbd07d21c	-0.03315936
139	0x3cb9ec50	0.02269569
140	0x3bd87382	0.0066055665
141	0x3d7e8e42	0.062147386
142	0xbb91fd80	-0.0044552684
143	0xbcd49e75	-0.025954464
144	0xbb0c9e69	-0.0021456724
145	0xbd36bf6f	-0.04461616
146	0xbdb3caab	-0.0877889
147	0xbadc171d	-0.0016791556
148	0x3dcbf7cc	0.09959373
149	0x3b49c09a	0.0030784965
150	0x3e21a86b	0.15786903
151	0x3de08d6b	0.10964473
152	0x3e15b007	0.1461793
153	0x3da68071	0.08129967
154	0xbc76ff8e	-0.015075577
155	0xbcddadbb	-0.02706038
156	0xbc4d1ddf	-0.012519329
157	0x3e2939c2	0.16525939
158	0x3d49a93d	0.049233664
159	0x3c1eaff5	0.009685506
160	0xbcdab8e5	-0.026699493
161	0x3cf9b4c8	0.030481711
162	0x3d274804	0.040840164
163	0x3ddc5774	0.10758868
164	0x3dc50a59	0.09621114
165	0x3ce48a95	0.027898112
166	0xbca935b3	-0.020655489
167	0x3df39fff	0.11895751
168	0x3db4656e	0.08808409
169	0x3e16efbf	0.14739893
170	0xbd931a32	-0.07182731
171	0xbd7441ec	-0.05963318
172	0xbe3610db	-0.17779867
173	0x3dea3fee	0.11437975
174	0x3da3cdb7	0.07998221
175	0xbcab82b4	-0.020936348
176	0x3dba581f	0.09098839
177	0xbdb51af6	-0.08843033
178	0xbdb5ef20	-0.088835
179	0xbd254de1	-0.040357474
180	0xbc6d0483	-0.014466408
181	0xbc01cc92	-0.0079223085
182	0xbd4ba693	-0.049719404
183	0x3b125315	0.0022327353
184	0xbda56d53	-0.080774926
185	0xbd539e6a	-0.051664747
186	0xbd986658	-0.074413955
187	0xbd83dbed	-0.06438432
188	0xbcae2aee	-0.021260705
189	0xbda3d056	-0.07998721
190	0x3d7477a3	0.059684407
191	0xbb1b580e	-0.0023703608
192	0xbe1ae628	-0.1512686
193	0xbd50cc7c	-0.05097626
194	0x3dafdc64	0.08586958
195	0xbb4ce07c	-0.0031261733
196	0x3df7c4e4	0.12098101
197	0x3e2f6e83	0.17132
198	0xbd4ec0be	-0.050476782
199	0x3bac786d	0.0052633793
200	0x3d9738fe	0.07383917
201	0xbdcc57f8	-0.09977716
202	0xbdeb1b9a	-0.11479874
203	0x3c03d13d	0.008045492
204	0xbd236ded	-0.039899755
205	0xbcc66ba0	-0.024221241
206	0x3de990c1	0.11404563
207	0xbd90595d	-0.07048295
208	0xbd84b93c	-0.06480643
209	0x3e382c07	0.17985545
210	0xbd8e1c2f	-0.06938969
211	0xbc8da2b7	-0.017289503
212	0x3da27501	0.07932473
213	0xbdffbcf0	-0.12487209
214	0xbe263558	-0.16231287
215	0xbd27d2e8	-0.04097262
216	0xbd88449a	-0.0665371
217	0xbdeca339	-0.1155457
218	0x3c244c4c	0.010027956
219	0xbdec7338	-0.11545414
220	0xbdeddb56	-0.11614101
221	0xbd640180	-0.055665493
222	0x3de28016	0.11059587
223	0x3dfb05ab	0.122569405
224	0x3d7a7bf5	0.06115337
225	0xbc4e3203	-0.012585166
226	0x3d37b1ff	0.044847485
227	0xbcf6dc03	-0.030134207
228	0xbd77fd00	-0.060544014
229	0x3e00345b	0.12519972
230	0x3d825581	0.06363965
231	0x3c618abf	0.01376599
232	0xbc4cf8cf	-0.0125104925
233	0xbd5e7f3a	-0.05432055
234	0x3d958246	0.07300238
235	0x3df46e7f	0.11935138
236	0xbdd834f2	-0.105569735
237	0x3c699e9b	0.014259006
238	0x3d9f59b3	0.07780781
239	0x3dbf6255	0.09344927
240	0xbc9cc726	-0.01913793
241	0x3e0552dd	0.13019891
242	0x3b6f58b8	0.0036521386
243	0xbcda96bb	-0.026683202
244	0x3dff9e76	0.12481396
245	0xbd51d8a3	-0.05123199
246	0x3d932794	0.07185283
247	0xbd77e4c9	-0.06052092
248	0x3c4a3c1f	0.012343436
249	0xbcbe1bdf	-0.02320665
250	0x3d99dc9e	0.075127825
251	0xbdb23426	-0.08701353
252	0x3db99a68	0.09062654
253	0xbd06c036	-0.03289815
254	0x3de7079b	0.112807475
255	0xbc6ec6ad	-0.014573735

conv3.bias f4 [64]
0	0x36bf5bf5	5.702949e-06
1	0x3745b9a2	1.1785336e-05
2	0x383b69d2	4.4682827e-05
3	0xb8a57697	-7.889902e-05
4	0xb8c24e82	-9.265264e-05
5	0xb8e86b1a	-0.00011082571
6	0xb9a89b94	-0.00032159372
7	0x380390f8	3.1367847e-05
8	0xb985a630	-0.00025491556
9	0xb902e93b	-0.00012484651
10	0x3571d780	9.009309e-07
11	0x36e3d212	6.7895826e-06
12	0xb90a80c3	-0.00013208673
13	0x38bc2509	8.971437e-05
14	0xb7a5189c	-1.9680992e-05
15	0xb7dd9096	-2.6412581e-05
16	0x38dec680	0.000106227584
17	0x37908f62	1.7232906e-05
18	0x38d43926	0.000101195925
19	0x38a258fc	7.7413366e-05
20	0xb911ff3a	-0.00013923357
21	0x3783950d	1.5685824e-05
22	0xb92df22b	-0.0001658878
23	0xb6584374	-3.222577e-06
24	0xb6697248	-3.4786226e-06
25	0xb8f17afb	-0.000115146824
26	0x38ee60db	0.00011366765
27	0xb8b887c6	-8.7990935e-05
28	0xb81cd253	-3.7389178e-05
29	0xb6f47a08	-7.285973e-06
30	0x3a0152d4	0.0004933302
31	0xb8b07e71	-8.4158855e-05
32	0x3838f267	4.4094773e-05
33	0xb8e89478	-0.000110902765
34	0x37874121	1.6123582e-05
35	0x37a30268	1.9432235e-05
36	0x396d9bdc	0.00022660143
37	0xb7cc9c8e	-2.4391597e-05
38	0xb8635d94	-5.420817e-05
39	0x38887c4d	6.508138e-05
40	0xb7d89870	-2.582019e-05
41	0xb8c66cd9	-9.46165e-05
42	0xb8751988	-5.843633e-05
43	0xb99ea963	-0.0003026231
44	0x38111ae2	3.459573e-05
45	0x37dcccf4	2.6321482e-05
46	0x39359f69	0.0001732089
47	0xba3deb7d	-0.00072448683
48	0x3845b594	4.7137568e-05
49	0xb90a5f25	-0.0001319615
50	0x3a0461a6	0.0005049951
51	0xb6c0e9d9	-5.7492693e-06
52	0x37aa4be0	2.0300911e-05
53	0x39f525b7	0.0004675814
54	0xb936e094	-0.00017440534
55	0xb82565e5	-3.9433962e-05
56	0x39b2083c	0.0003395694
57	0xb6cff890	-6.198017e-06
58	0x391d1c80	0.00014983304
59	0x3898946a	7.275569e-05
60	0xba1e02ee	-0.0006027658
61	0xb7ba67af	-2.222121e-05
62	0xb80ca2ef	-3.3530345e-05
63	0x37528230	1.2547287e-05

bn3.weight f4 [64]
0	0x3f2ff9a3	0.6874029
1	0x3f4c6518	0.79841757
2	0x3f829115	1.0200526
3	0x3f70b763	0.94029826
4	0x3f6ae3ab	0.91753644
5	0x3f7fb11a	0.9987961
6	0x3f895e90	1.0731983
7	0x3f89684a	1.0734951
8	0x3f5408b5	0.82825786
9	0x3f7eccd0	0.9953127
10	0x3f81c868	1.0139284
11	0x3f772594	0.96541715
12	0x3f7851c4	0.96999764
13	0x3f7347e5	0.9503158
14	0x3f49112f	0.78541845
15	0x3f612bad	0.8795727
16	0x3f537326	0.8259758
17	0x3f57533a	0.8411137
18	0x3f89201c	1.0712924
19	0x3f823c0f	1.0174578
20	0x3f7e65d6	0.9937414
21	0x3f55577e	0.8333663
22	0x3f7af9dd	0.9803751
23	0x3f56c8da	0.83900225
24	0x3f7fcd51	0.9992266
25	0x3f815b3f	1.0105971
26	0x3f7237cd	0.94616395
27	0x3f87ebb3	1.0618805
28	0x3f939751	1.1530553
29	0x3f5a106a	0.85181296
30	0x3f83aedb	1.0287737
31	0x3f66a15b	0.9008996
32	0x3f7183b1	0.9434157
33	0x3f84eb08	1.0384226
34	0x3f614873	0.88001174
35	0x3f856582	1.0421603
36	0x3f926466	1.1436889
37	0x3f4ef7ff	0.8084716
38	0x3f83933c	1.0279307
39	0x3f59bdaf	0.8505506
40	0x3f64e566	0.89412534
41	0x3f5bb381	0.85820776
42	0x3f688718	0.90831137
43	0x3f6926ce	0.91074836
44	0x3f765b9f	0.9623355
45	0x3f8130b5	1.0092989
46	0x3f6323df	0.8872661
47	0x3f8ef21f	1.116764
48	0x3f772f21	0.9655629
49	0x3f68c11b	0.90919656
50	0x3f809040	1.0044022
51	0x3f4a6a64	0.7906859
52	0x3f881668	1.0631838
53	0x3f7a7bcf	0.97845167
54	0x3f61aeb7	0.8815722
55	0x3f60ab9a	0.87761843
56	0x3f6a3203	0.9148256
57	0x3f827a78	1.0193624
58	0x3f67564b	0.9036605
59	0x3f66c6dd	0.9014719
60	0x3f61293a	0.8795353
61	0x3f4b9be3	0.7953474
62	0x3f64d2e3	0.8938429
63	0x3f7516f9	0.9573818

bn3.bias f4 [64]
0	0xbd93862c	-0.07203326
1	0xbd96ae63	-0.073574804
2	0x3d874176	0.066042826
3	0xbda06134	-0.0783104
4	0x3d13519a	0.035966493
5	0xbc25e841	-0.010126174
6	0x3c7489fe	0.014925478
7	0xbc55123f	-0.0130048385
8	0xbd62035e	-0.055178992
9	0x3e1d2cc8	0.15349114
10	0x3db7bb01	0.08971215
11	0xbe1a2e66	-0.15056762
12	0x3e28e3a6	0.16493091
13	0xbd8da735	-0.06916658
14	0xbcc5e161	-0.02415532
15	0x3d3cd543	0.04610182
16	0x3d607e62	0.054808028
17	0x3c6bc94f	0.014391257
18	0x3d5d78ad	0.054070164
19	0xbdebd950	-0.115160584
20	0x3c48c371	0.012253628
21	0xbdb7200a	-0.08941658
22	0x3e2666c0	0.16250134
23	0x3cb99f43	0.02265895
24	0xbc74e219	-0.014946484
25	0x3d8826d3	0.0664803
26	0x3e102791	0.14077593
27	0x3d5a6aee	0.053324632
28	0x39ba0dc4	0.0003548694
29	0xbdadbc0c	-0.08483133
30	0x3dee892f	0.116472594
31	0xbce45e42	-0.027876977
32	0x3dbc7145	0.09201292
33	0x3d8dee7d	0.06930254
34	0xbd90d2de	-0.0707147
35	0xbe03eab3	-0.128825
36	0xbe3a34c5	-0.18184192
37	0xbd9928bd	-0.07478473
38	0x3d13ef78	0.036117047
39	0xbb9c1b26	-0.0047639785
40	0xbd217062	-0.039413817
41	0x3ca94ef0	0.020667523
42	0x3c8cf0a5	0.017204592
43	0xbcdb75ff	-0.026789663
44	0x3d9e2ecc	0.077237695
45	0x3c85259f	0.01625329
46	0x3c5e65bd	0.013574061
47	0xbe33c5f9	-0.1755599
48	0xbd553836	-0.05205556
49	0x3dec5248	0.115391314
50	0x3e37ba3a	0.17942134
51	0xbd78ca7e	-0.060739987
52	0xbd0e7192	-0.034776278
53	0x3da8a75c	0.08235046
54	0xbd3e18a8	-0.046410233
55	0x3e1f3871	0.15548874
56	0xbdb85564	-0.09000662
57	0x3e1da5a0	0.15395212
58	0xbdb4587b	-0.08805939
59	0xbe11bccc	-0.14232177
60	0xbd78e91a	-0.060769178
61	0xbdc00b3c	-0.09377143
62	0xbda02a9d	-0.07820628
63	0xbcd33bf2	-0.02578542

bn3.running_mean f4 [64]
0	0x3ebe84d6	0.3721072
1	0x3e7070f4	0.23480588
2	0x3d8dc3c8	0.06922108
3	0xbece0b4e	-0.40243
4	0xbf801697	-1.0006894
5	0xbe836c08	-0.2566836
6	0xbd910b10	-0.07082188
7	0x3e0358e8	0.12826884
8	0x3d919d8b	0.07110127
9	0xbf5da871	-0.86585146
10	0xbcd0a6e4	-0.025470205
11	0xbca6c067	-0.020355416
12	0xbe68be28	-0.22728789
13	0xbe8280de	-0.25488943
14	0x3eb7d08b	0.35901293
15	0xbf695ecf	-0.9116029
16	0xbf5ab0cd	-0.85426027
17	0x3dc1f246	0.09470038
18	0x3da65962	0.08122517
19	0xbefb2a01	-0.49055484
20	0x3dbe13e4	0.092811376
21	0xbeb97313	-0.36220607
22	0x3e3d6b34	0.18497926
23	0xbceac188	-0.028656736
24	0xbe986454	-0.29764044
25	0xbead0c7a	-0.3379858
26	0xbe84e3c8	-0.25955033
27	0x3ecc0988	0.39851022
28	0xbebc596b	-0.3678697
29	0x3eb397b3	0.35076675
30	0xbd837a7e	-0.06419848
31	0xbe4de5ea	-0.20107237
32	0xbfa21ec6	-1.2665641
33	0xbd4972ae	-0.049181633
34	0xbd6f5ce7	-0.058438208
35	0x3cc4dae6	0.02403016
36	0xbf7794fd	-0.96711713
37	0x3e75dc93	0.24009924
38	0xbf40ddae	-0.75338256
39	0x3eafb9d5	0.34321466
40	0xbd281f05	-0.041045208
41	0xbcc9984d	-0.024608755
42	0xbe6e23ff	-0.23255919
43	0xbd2ba476	-0.04190489
44	0x3e42ec21	0.19035389
45	0xbeb0cd79	-0.34531763
46	0xbeed659f	-0.46366593
47	0xbf5bbc87	-0.85834545
48	0x3de39922	0.11113192
49	0xbd1c0ade	-0.0380963
50	0xbeb96d5c	-0.36216247
51	0x3e22807c	0.15869325
52	0xbfb3168d	-1.3991257
53	0xbefeb08e	-0.49744076
54	0xbef58d38	-0.47959304
55	0x3c009549	0.007848092
56	0x3ec4c603	0.3843232
57	0xbf1bb849	-0.6082807
58	0x3f18cddf	0.59689134
59	0x3e1741e7	0.14771233
60	0xbeac35ec	-0.3363489
61	0x3f05d288	0.5227437
62	0x3e00784d	0.12545891
63	0x3f084c40	0.5324135

bn3.running_var f4 [64]
0	0x3f0eb6ed	0.5574787
1	0x3f1f31f7	0.62185615
2	0x3e81f53c	0.2538241
3	0x3f8315c4	1.0241017
4	0x3fcde262	1.6084712
5	0x3febe220	1.8428383
6	0x3e8aa38e	0.27077907
7	0x3ea6f71e	0.3261041
8	0x3e5f7d68	0.21825182
9	0x3fde2a9d	1.7356755
10	0x3ed352a3	0.41273984
11	0x3ec1acb0	0.37827063
12	0x3eb9ae7e	0.3626594
13	0x3e82c8c0	0.25543785
14	0x3fda643f	1.7061843
15	0x3f148e61	0.5802975
16	0x3ec17bbb	0.3778971
17	0x3efbd904	0.49189007
18	0x3eb6ccb9	0.35703066
19	0x3ee637d0	0.44964457
20	0x3e6c6cf8	0.23088443
21	0x3ee6023e	0.44923586
22	0x3e47d864	0.1951614
23	0x3e622aa7	0.22086583
24	0x3fa2c867	1.2717408
25	0x3e74c5b7	0.23903547
26	0x3ed72e8f	0.4202771
27	0x3eecc401	0.4624329
28	0x400606b0	2.0941582
29	0x3f3747cf	0.71593946
30	0x3f6d7e26	0.9277061
31	0x3eeb6d0d	0.45981637
32	0x3ee18b92	0.44051796
33	0x3e9738df	0.29535577
34	0x3f05e304	0.52299523
35	0x3ed8fbfe	0.42379755
36	0x3fa7591d	1.307407
37	0x3e9087ee	0.28228706
38	0x3e76c676	0.24099144
39	0x3eb2cda4	0.34922516
40	0x3f116bb4	0.56804967
41	0x3e98b144	0.29822743
42	0x3ee4d486	0.44693393
43	0x3ee4d7c8	0.44695878
44	0x3f2aae44	0.6667216
45	0x400614e0	2.095024
46	0x3e8ed03f	0.27893254
47	0x3fd0ac18	1.6302519
48	0x3eb2fa21	0.34956458
49	0x3e9c621e	0.30543607
50	0x3e96789a	0.29388887
51	0x3f244854	0.64172864
52	0x401d1343	2.4543006
53	0x3f3233ba	0.6961018
54	0x3ed61fb8	0.41821074
55	0x3ea553ca	0.32290488
56	0x3e874ccb	0.26425776
57	0x3eda448e	0.42630428
58	0x3ea2156c	0.3165697
59	0x3e3ec9cd	0.18631668
60	0x3e47bd3b	0.1950578
61	0x3f49ed25	0.7887748
62	0x3e861f6b	0.26195845
63	0x3e90f519	0.28311995

conv4.weight f4 [64, 64, 3]
0	0xbd7f5a81	-0.06234217
1	0x3d2a4c9c	0.041576967
2	0xbc474d07	-0.012164361
3	0xbc249a5e	-0.01004657
4	0xbda0f390	-0.07858956
5	0x3bbbe1fd	0.005733727
6	0x3ce1ed2a	0.027578909
7	0x3db888e2	0.09010483
8	0x3cbddd2d	0.023176754
9	0xbc3544ac	-0.011063736
10	0x3d8f619b	0.07001039
11	0x3d8e991d	0.06962798
12	0x3c88a2ce	0.016679194
13	0x3c7507c5	0.014955466
14	0xbc45d585	-0.012074833
15	0xbcb9789e	-0.022640523
16	0xbdc4c5b2	-0.0960802
17	0x3d317d20	0.04333222
18	0x3d3ebaa8	0.046564728
19	0x3e286a81	0.16446878
20	0xbd05b0ca	-0.032639302
21	0x3ce7cce9	0.028295951
22	0x3c3e9e72	0.011634456
23	0xbb37f54e	-0.0028069797
24	0xbd7015a7	-0.0586144
25	0x3cc6c587	0.02426411
26	0xbd60dc21	-0.05489743
27	0x3e0fab3b	0.14030163
28	0x3d8b3419	0.06797046
29	0xbd3f4845	-0.04669978
30	0x3de9f5a3	0.114238046
31	0x3d7f7bdb	0.062373977
32	0x3d604a39	0.054758284
33	0xbd399451	-0.04530746
34	0xbc7e648f	-0.015526905
35	0x3d075603	0.03304101
36	0x3e125c32	0.14292982
37	0x3cc6adeb	0.024252852
38	0xbdbea7cb	-0.09309348
39	0xbc844428	-0.01614578
40	0x380219de	3.1018506e-05
41	0x3dbb1407	0.09134679
42	0x3d90af7a	0.070647195
43	0x3d1f0910	0.038827002
44	0xbda73ae1	-0.08165527
45	0x3c87dde0	0.01658529
46	0x3d376f53	0.0447839
47	0x3d923fe4	0.071410924
48	0xbb41da14	-0.0029579448
49	0x3cfdeb16	0.030995887
50	0xbd9b22d3	-0.075750016
51	0xbd0bc5b7	-0.034124102
52	0xbb892d77	-0.004186328
53	0xbdc362c5	-0.09540323
54	0x3dff2af5	0.12459365
55	0xbcd817b1	-0.026378484
56	0xbda7e8f3	-0.081987284
57	0xbdab1652	-0.08353867
58	0x3d5d668c	0.054052874
59	0x3a4600dd	0.0007553229
60	0xbba0c3ac	-0.0049061384
61	0x3da0c1ce	0.07849465
62	0xbd905084	-0.07046607
63	0x3d950ad8	0.07277459
64	0xbdb1ab6b	-0.086752735
65	0xbd0cbce7	-0.03435984
66	0x3c29ad76	0.010356298
67	0xbd8807f6	-0.066421434
68	0xbcebd740	-0.028789163
69	0xbcaef69d	-0.021357829
70	0xbd84a4e3	-0.06476762
71	0x3d144c3a	0.036205508
72	0x3cfd25b7	0.030901773
73	0xbdfe8596	-0.12427823
74	0xbdbf68df	-0.093461744
75	0xba14602a	-0.00056600815
76	0x3cbbafb8	0.022910938
77	0x3deb10c6	0.11477809
78	0xbdad065b	-0.08448478
79	0x3ccc9e02	0.024977688
80	0xbd406a5b	-0.04697643
81	0xbdb9922f	-0.090610854
82	0x3c89655a	0.016771961
83	0x3d67db3c	0.056605563
84	0x3ddc197b	0.107470475
85	0xbe179533	-0.14803009
86	0xbbbb2810	-0.005711563
87	0x3cc9f14a	0.024651188
88	0x3cc1c7d8	0.023654863
89	0xbd752369	-0.059848223
90	0xbdb26e41	-0.087124355
91	0x3d1488ba	0.036263205
92	0x3bf16745	0.007367047
93	0xbc3d1a6b	-0.011541943
94	0x3dc00454	0.093758255
95	0xbdccf2ee	-0.10007273
96	0x3dca9904	0.09892467
97	0xbc969f3b	-0.018386474
98	0x3d95ca70	0.073140025
99	0x3e01b363	0.12666087
100	0x3da4c79d	0.08045886
101	0x3c5a61a3	0.0133289425
102	0x3dd6728b	0.10471066
103	0x3d182d7c	0.037152752
104	0xbd9f1ff7	-0.07769769
105	0x3d8dd008	0.069244444
106	0xbdd6e994	-0.1049377
107	0x3d0bb324	0.03410639
108	0xbcc892c1	-0.02448404
109	0xbd25315a	-0.04033027
110	0x3dfaae2d	0.12240253
111	0xbda996e3	-0.082807325
112	0xbcab5ea3	-0.02091915
113	0x3dadfa91	0.084950574
114	0x3df2c59e	0.11854099
115	0xbd134cd3	-0.035961937
116	0xbd35aa3d	-0.044351805
117	0xbc221a7e	-0.009894012
118	0xbdcae5f5	-0.09907142
119	0xbb785fce	-0.00378989
120	0xbda0aea1	-0.07845808
121	0xbd89d2d5	-0.06729666
122	0xbbe13e5a	-0.006873888
123	0xb9e33f60	-0.00043344032
124	0x3deca014	0.1155397
125	0xbc88d1ff	-0.016701696
126	0x3d19ea4f	0.03757697
127	0x3c41e6a0	0.01183477
128	0x3d5a2979	0.053262208
129	0x3db0070e	0.085950956
130	0x3d50780e	0.050895743
131	0x3daf5eac	0.08562979
132	0x3c2f3986	0.010694867
133	0x3d0d78bb	0.034538966
134	0xbd1d930d	-0.038470317
135	0x3d09376e	0.033500127
136	0xbd9bfe22	-0.07616831
137	0xbd99bd6a	-0.07506831
138	0xbd36c3dc	-0.04462038
139	0xbae2d894	-0.0017306977
140	0x3c9cddf5	0.019148806
141	0x3d532fb9	0.051559184
142	0x3d02be93	0.031920027
143	0xbd2a763d	-0.041616667
144	0xbddf35cd	-0.108989336
145	0x3cebe645	0.028796325
146	0xbd3fee1c	-0.04685794
147	0xbc6e1a9d	-0.014532712
148	0x3bed6307	0.007244471
149	0x3d4c7057	0.049911823
150	0xbdeabc5c	-0.11461708
151	0x3de788bb	0.11305376
152	0xbd1ad22b	-0.037798088
153	0xbd1a1173	-0.037614297
154	0xbca275a2	-0.019831482
155	0x3d1ee847	0.038795736
156	0xbc29acdb	-0.010356153
157	0xbda3445f	-0.07972025
158	0xbca22e54	-0.019797482
159	0x3d6adc7f	0.057339188
160	0xbd17fc8e	-0.03710609
161	0x3c10df12	0.008842247
162	0xbd134202	-0.03595162
163	0x3cd94285	0.026520977
164	0x3cf41037	0.029792888
165	0x3d18b870	0.03728527
166	0x3d6e13d0	0.058124363
167	0xbd02b1cf	-0.031907853
168	0x3d9cab2e	0.076498374
169	0x3dab9e42	0.08379795
170	0xbcd48f77	-0.025947316
171	0xbda54c01	-0.08071137
172	0xbbfe83a6	-0.0077671586
173	0x3c929433	0.017892933
174	0x3d51f667	0.05126038
175	0x3c92937c	0.017892592
176	0x3ce7869f	0.028262435
177	0xbc4e7f21	-0.012603552
178	0x3d4e1571	0.050313417
179	0xbce18149	-0.027527468
180	0xbd126db1	-0.03574914
181	0xbd662b8a	-0.056193866
182	0x3d2d06b6	0.04224273
183	0x3dafc262	0.085819975
184	0x3d924aab	0.07143148
185	0xbdf2f08d	-0.11862288
186	0xbcb6f9fd	-0.022336
187	0x3df8aa1f	0.12141823
188	0xbbb45c7b	-0.0055041886
189	0xbcdc10a0	-0.026863396
190	0xbdc509d3	-0.096210144
191	0x3d005110	0.031327307
192	0xbbba0297	-0.0056765783
193	0xba372282	-0.0006986038
194	0xbd828efe	-0.0637493
195	0x3d04b4aa	0.032398857
196	0x3c6d93f9	0.014500611
197	0xb9003e8c	-0.00012230332
198	0x3e110e1a	0.14165536
199	0x3db93e11	0.09045041
200	0x3e15434a	0.1457645
201	0xbd93c60e	-0.0721551
202	0x3d3982c3	0.04529072
203	0x3ac13dbe	0.0014743132
204	0x3d03d9d2	0.03219015
205	0xbd526a2a	-0.051370777
206	0x3bc52b35	0.0060171136
207	0xbd23bfdb	-0.03997789
208	0xbb92d91f	-0.0044814493
209	0x3c8c7c92	0.017149244
210	0x3ba10d55	0.0049149194
211	0xbcc7bbd5	-0.024381557
212	0x3d7a93b6	0.061176024
213	0x3df6af77	0.12045186
214	0x3d97055e	0.073740706
215	0x3bb39b21	0.0054811393
216	0x3c48170a	0.012212524
217	0xbc3c73f8	-0.0115022585
218	0xbc80dfac	-0.015731655
219	0x3d0c0501	0.03418446
220	0xbcff6f9e	-0.031181153
221	0xbda1ea67	-0.07906037
222	0x3de8ff34	0.11376801
223	0xbd6d5294	-0.05794008
224	0x3e0e44b1	0.13893391
225	0xbd94db37	-0.072683744
226	0x3bc7f1c8	0.0061018206
227	0x3d5cd762	0.053916343
228	0x3d8d7967	0.06907921
229	0x3d41831c	0.047244176
230	0xbb8f1fff	-0.004367828
231	0xbbe85c5b	-0.0070910878
232	0xbd618f25	-0.055068154
233	0x3cd96e96	0.02654199
234	0x3dae0f74	0.08499041
235	0xbd2b1dc3	-0.04177643
236	0xbd5285e4	-0.05139722
237	0xbb754e43	-0.003743068
238	0xbdb1fe42	-0.08691074
239	0xbd39073f	-0.045172926
240	0xbd28b5d1	-0.04118902
241	0xbd1d76b6	-0.03844329
242	0x3ce6a48c	0.028154634
243	0xbd8a30e1	-0.06747604
244	0x3d894d73	0.067042254
245	0x3d81b70f	0.06333744
246	0x3d368fab	0.044570606
247	0x3c290e5a	0.010318363
248	0xbdf26092	-0.118348256
249	0x3d1801e7	0.03711119
250	0xbda0fb8e	-0.0786048
251	0x3dd350da	0.103181556
252	0x3cf3546b	0.02970334
253	0xbde102f7	-0.109868936
254	0x3c1ef676	0.009702316
255	0x3cc4060a	0.02392866

conv4.bias f4 [64]
0	0xb799735e	-1.8292743e-05
1	0x37a6cf23	1.9885198e-05
2	0x37ea56a0	2.7935312e-05
3	0xb78e9787	-1.699828e-05
4	0x369dab1a	4.6988835e-06
5	0x3722e43f	9.709095e-06
6	0xb76a88c8	-1.3979334e-05
7	0xb7696d51	-1.3913334e-05
8	0xb7bde782	-2.263836e-05
9	0x3827ae60	3.9978302e-05
10	0xb75b1812	-1.30590215e-05
11	0x35a7d6c8	1.2504979e-06
12	0xb76b13d0	-1.40117045e-05
13	0x35997302	1.143286e-06
14	0x3918b1fc	0.00014562154
15	0x378ef7d2	1.704312e-05
16	0x3694e89a	4.437822e-06
17	0xb6af8b3c	-5.2316154e-06
18	0xb4c02149	-3.5787005e-07
19	0xb71d1ac5	-9.364162e-06
20	0xb6a5a9b8	-4.937141e-06
21	0x3816484c	3.583012e-05
22	0xb78dcea8	-1.6904742e-05
23	0xb77a30d7	-1.4912533e-05
24	0xb73ef4ba	-1.1381862e-05
25	0xb647755d	-2.9721625e-06
26	0xb780967d	-1.5328866e-05
27	0xb72a2431	-1.0141216e-05
28	0xb7e1d642	-2.6921862e-05
29	0xb5e0743e	-1.6723131e-06
30	0x379f5db9	1.899792e-05
31	0xb7272a33	-9.963801e-06
32	0xb894ba07	-7.09184e-05
33	0xb6506ac9	-3.1056572e-06
34	0xb680e878	-3.84176e-06
35	0xb6a4c5d5	-4.9106116e-06
36	0x3533af13	6.6937463e-07
37	0x3814465c	3.5351477e-05
38	0x37d4cfc8	2.5369125e-05
39	0x36674864	3.446382e-06
40	0x35974acf	1.1272149e-06
41	0x37ce247b	2.4574101e-05
42	0x374e960d	1.2313493e-05
43	0xb883ca7e	-6.284284e-05
44	0xb8a35b1e	-7.7894176e-05
45	0xb79f736c	-1.9008025e-05
46	0x360426d6	1.9692138e-06
47	0x36bbc793	5.596268e-06
48	0x3692548a	4.3609807e-06
49	0x37229a19	9.691831e-06
50	0xb9108d0a	-0.00013785451
51	0x37349d0a	1.07654e-05
52	0x344592cc	1.8400459e-07
53	0xb6c42c38	-5.846403e-06
54	0xb6ac5f31	-5.137081e-06
55	0x37cece01	2.4653042e-05
56	0x3866aac2	5.4995304e-05
57	0xb8717933	-5.7571753e-05
58	0xb7d051ab	-2.4833562e-05
59	0xb7949dac	-1.7716397e-05
60	0xb68af129	-4.140795e-06
61	0x36210480	2.399349e-06
62	0x34e954b0	4.346125e-07
63	0x380682b4	3.2069816e-05

bn4.weight f4 [64]
0	0x3f83bcac	1.0291953
1	0x3f84c3eb	1.037229
2	0x3f80b8b2	1.0056365
3	0x3f80355f	1.0016288
4	0x3f66a5e9	0.9009691
5	0x3f8777aa	1.0583394
6	0x3f6e4357	0.930715
7	0x3f61207f	0.8794021
8	0x3f7bc8ac	0.98353076
9	0x3f89cf81	1.076645
10	0x3f887b48	1.0662622
11	0x3f60727b	0.87674683
12	0x3f86c982	1.0530245
13	0x3f1c3c0e	0.61029136
14	0x3f890fd1	1.0707952
15	0x3f70c5c3	0.9405176
16	0x3f7e2658	0.9927726
17	0x3f734edd	0.9504221
18	0x3f0646a1	0.5245152
19	0x3f592c78	0.8483348
20	0x3f6841a7	0.9072518
21	0x3f7f89e0	0.99819756
22	0x3f81f7e1	1.0153772
23	0x3f815650	1.0104465
24	0x3f82014a	1.0156643
25	0x3f7b14cb	0.980786
26	0x3f829d95	1.020434
27	0x3f7653a2	0.96221364
28	0x3f84f8c8	1.0388422
29	0x3f711b5f	0.9418239
30	0x3f7dc8e4	0.9913466
31	0x3f8190fb	1.012237
32	0x3f7351e4	0.9504683
33	0x3f7de95c	0.99184203
34	0x3f69722d	0.91189843
35	0x3f47e877	0.7808909
36	0x3f2d930c	0.678025
37	0x3f7cff7a	0.98827326
38	0x3f79281e	0.9732684
39	0x3f80024f	1.0000705
40	0x3f3117b0	0.6917677
41	0x3f7b28c4	0.9810908
42	0x3f8038f0	1.0017376
43	0x3f8b5001	1.088379
44	0x3f82c0b6	1.0215061
45	0x3f848c00	1.0355225
46	0x3f7f7fb9	0.99804264
47	0x3f7ebd0b	0.99507207
48	0x3f3e0273	0.7422249
49	0x3f7ccab3	0.98746794
50	0x3f81941a	1.0123322
51	0x3f74017e	0.95314777
52	0x3f76d437	0.96417564
53	0x3f73a1d9	0.95168835
54	0x3f800468	1.0001345
55	0x3f84522a	1.0337574
56	0x3f891d28	1.0712023
57	0x3f84e179	1.0381309
58	0x3f846aaa	1.0345051
59	0x3f83a29f	1.0284003
60	0x3f6db669	0.9285646
61	0x3f745004	0.95434594
62	0x3f6f8732	0.93565667
63	0x3f8230df	1.0171164

bn4.bias f4 [64]
0	0x3d6f5053	0.058426213
1	0x3d9fc8d0	0.07801974
2	0xbd966aa7	-0.07344561
3	0x3d45e90b	0.04831795
4	0xbe511475	-0.2041796
5	0xbc0d1b15	-0.008612414
6	0xbe2fbc30	-0.17161632
7	0x3da24e08	0.079250395
8	0x3d117511	0.035512034
9	0xbc57a7af	-0.0131625375
10	0x3dda97a1	0.10673452
11	0xbd932617	-0.071849994
12	0x3d9a9891	0.07548631
13	0xbde0ba1a	-0.10972996
14	0xbc7e0692	-0.015504496
15	0xbe0819ad	-0.13291045
16	0x3df98f9f	0.12185597
17	0xbdc79fa1	-0.09747244
18	0xbdad28b1	-0.08455027
19	0xbdf3a42f	-0.1189655
20	0xbe400fcb	-0.18756025
21	0xbe24ccd1	-0.16093756
22	0x3e233630	0.1593864
23	0x3e2869dd	0.16446634
24	0x3cb2b926	0.021816801
25	0x3d2f4bfa	0.042797066
26	0x3dc80c2a	0.09767945
27	0x3da8740d	0.0822526
28	0xbd717c40	-0.058956385
29	0xbe3c5679	-0.18392362
30	0xbd9fbaad	-0.077992775
31	0x3e00f96c	0.12595147
32	0xbe24a649	-0.16079058
33	0xbd000f86	-0.031264804
34	0x3d9d4640	0.07679415
35	0xbe6e3eb7	-0.23266111
36	0xbc30d568	-0.0107930675
37	0x3d86f3a3	0.06589439
38	0xbe314e7f	-0.173151
39	0xbca575a3	-0.020197695
40	0xbd1eeed6	-0.03880199
41	0x3d8de85c	0.06929085
42	0x3d9136ef	0.07090556
43	0x3a777326	0.00094394607
44	0x3da8f763	0.0825031
45	0x3df19c77	0.117974214
46	0xbe27a6b3	-0.16372184
47	0x3cf89827	0.03034599
48	0x3d4bb116	0.04972943
49	0x3e0b968a	0.13631645
50	0x3e1d2eb8	0.15349853
51	0xbe2bfdf3	-0.16796093
52	0x3d8c5877	0.06852811
53	0xbe14fba5	-0.1454912
54	0x3df9e6ef	0.1220225
55	0x3e24672f	0.16054986
56	0xbcfca81e	-0.030841883
57	0x3e27dadd	0.16392083
58	0x3e0864f5	0.13319762
59	0xbc0c0e2a	-0.008548299
60	0x3d50427f	0.050844666
61	0x3d232b1b	0.03983603
62	0xbb9f39a0	-0.0048591644
63	0x3e290b08	0.16508114
