torch_cnn.pt (torch, 110461 bytes, 26 tensors)

conv1.weight f4 [32, 1, 80]
000000 b9 26 bc 3d c6 96 6b 3d 53 a5 cb bd 9f 83 71 bd
       0.09187073 0.057516836 -0.099436425 -0.058963414
000010 b2 9f ce bc 93 79 57 3d d2 18 ba 3c 25 18 e7 3d
       -0.025222633 0.052606177 0.022716913 0.11283902
000020 16 db 77 bc b4 62 a0 3d 3c 45 b5 bd f0 f8 a1 bd
       -0.015127918 0.07831326 -0.08851096 -0.07908809
000030 a3 5c 27 be 24 35 f6 bd 8c 70 b4 bb e0 d5 82 bd
       -0.16343932 -0.120218545 -0.0055065807 -0.0638845
000040 17 0c 47 bd ab 34 d2 3d 69 a2 f8 bb 17 52 1f bd
       -0.048595514 0.10263952 -0.00758772 -0.038896646
000050 ca c3 32 bc af 25 38 bc 7e 12 2b 3d ce c2 f5 3c
       -0.010910938 -0.011239453 0.041765682 0.030000117
000060 7f 1b 23 bd 7f 48 a0 bc ab 2b 0e 3c bd 4c 0e be
       -0.039821144 -0.019565819 0.008677403 -0.13896461
000070 e9 84 8a bd d9 69 3e 3c f6 c1 a6 3c a8 f0 ba 3d
       -0.06763632 0.011621916 0.02035616 0.09127933
000080 d8 a1 81 bd 6f e6 ca 3c 0b f7 95 bb bf 9d 9d bd
       -0.06329697 0.024768082 -0.004576569 -0.07696103
000090 59 b0 73 bd 67 d9 19 3e 19 83 58 3d 98 13 ff 3c
       -0.05949435 0.15024339 0.0528594 0.031137273
0000a0 79 2d ad 3c a9 8f e6 bd 24 03 45 bc b9 1d 08 be
       0.021139847 -0.1125787 -0.012024675 -0.13292588
0000b0 db 69 32 be ea 97 a3 bd 2d 3e c6 3c 04 d8 23 3d
       -0.17423193 -0.0798796 0.02419957 0.04000093
0000c0 51 7a 39 bd 0e 66 8c 3c e3 7f 1b 3d 07 ce 0b 3e
       -0.045282666 0.017138507 0.03796376 0.13652812
0000d0 44 1b 8f 3d 09 7e ea 3c d4 92 5a 3d f5 1b 9a bc
       0.069876224 0.028624551 0.053362682 -0.01881216
0000e0 92 ab ad 3d 66 26 22 be da 85 9a bc e3 72 8e bd
       0.0847999 -0.1583496 -0.018862654 -0.06955507
0000f0 ff a1 7e 3d 65 c4 b9 3c f8 92 b1 bd 39 cf 12 bd
       0.06216621 0.022676656 -0.0867061 -0.035842154
000100 27 2c c7 3c 0c 7b 4c bc 49 af 59 3c 2c fc 87 3d
       0.024313046 -0.012480509 0.01328642 0.06639895
000110 dd 94 ed 3d c9 37 f5 3d 20 f8 82 bd 72 43 66 bd
       0.11600659 0.11973531 -0.06394982 -0.056216665
000120 3a 0d 90 3c ad 63 a9 3d 57 1c 58 3d 03 38 75 3d
       0.017584432 0.08270965 0.052761402 0.05986787
000130 cd 77 f5 bc 76 37 f0 bd ef fd 84 bd 87 ea c2 bd
       -0.029964352 -0.11729328 -0.064937465 -0.09517389
000140 4e e2 1a be 6a 14 f9 3d 91 ad 04 3e 48 3a da bd
       -0.15125391 0.12162097 0.12956835 -0.106556475
000150 06 44 8d 3c 12 2f 39 bd 0a 78 23 3b 07 e0 4a bd
       0.01724435 -0.045210905 0.0024943375 -0.049530055
000160 89 f4 aa bc 37 7f ad bd 89 80 5b 3d ae 9e b6 3d
       -0.020868557 -0.0847153 0.053589378 0.089169845
000170 1f e4 a2 3d 4e e0 19 3d 51 f7 84 bd 52 64 41 bd
       0.07953667 0.03756743 -0.06492484 -0.047214814
000180 6b 10 62 3d 6e c4 2a 3c 59 65 e3 bd 17 f7 14 bd
       0.05519144 0.010422809 -0.11103315 -0.036368456
000190 4d fa 51 3d 53 f2 b3 3d 21 1a 52 bc bd 28 d2 bc
       0.051264096 0.08786454 -0.012823612 -0.025654191
0001a0 6c b9 80 bd 94 43 2f 3d 1b b1 a4 bd 1a 06 85 bd
       -0.062853664 0.042789057 -0.08041593 -0.064953044
0001b0 7c ea 3d 3c 20 b5 05 3d cc aa e4 bd 3d 0a 43 3d
       0.01159155 0.032643437 -0.111653894 0.047617186
0001c0 9f b7 5e bd 55 0d 41 3c 76 e9 31 3d 1f c8 5f bd
       -0.054374333 0.011782964 0.043435536 -0.05463421
0001d0 95 09 49 bd b3 af 39 bc 38 67 5f 3c 82 36 2d 3c
       -0.049081404 -0.011333394 0.013635449 0.010572078
0001e0 55 71 38 bc 8c 28 9e bb 2d 19 ae bd 13 11 19 3d
       -0.011257489 -0.004826611 -0.08500896 0.0373698
0001f0 03 8e c4 bd d3 82 b2 bd ce 2e 4f bd 2f 9a 93 bd
       -0.09597399 -0.08716359 -0.050581746 -0.072071426
000200 76 25 05 3c 07 08 01 be 37 bd 50 bd b5 b9 7b 3d
       0.008126607 -0.12600718 -0.0509617 0.0614564
000210 45 c6 69 bc ef d6 e1 bc a8 69 cf 3d 2e c1 6b 3c
       -0.014268463 -0.027568309 0.10127574 0.014389319
000220 31 ad 44 3d 80 2a f2 3b 9f 3d 2c 3b 90 01 ea 3b
       0.04801673 0.0073903203 0.0026281846 0.0071412995
000230 48 0b 20 3e 7a 23 f1 3d 9c 70 8f 3d ff d2 a9 3c
       0.15629303 0.11774345 0.070039004 0.020730494
000240 df af 5c bd d4 a9 c7 3c 1d e9 90 3d 32 3a 9b 3c
       -0.05387866 0.024372973 0.07075713 0.018948648
000250 a6 0d bd bd 49 39 d9 bd 70 5d e3 bd 8d 88 34 be
       -0.09231119 -0.106066294 -0.11101806 -0.17630215
000260 ea d1 26 bd 4a d7 ef 3c 8c 05 06 3e 3e 74 9e bd
       -0.040727533 0.029277463 0.13088053 -0.07737015
000270 2a 84 20 3e 85 ae e8 bd 56 94 43 bd f6 5c 31 bd
       0.15675417 -0.11361412 -0.047748886 -0.043301545
000280 8f af dc bd 3b b5 63 bd 19 aa 1a be 77 10 d6 bd
       -0.10775673 -0.055592757 -0.1510395 -0.10452359
000290 2a c0 45 bd 2f f5 2f 3d 5c 52 2c bd dc 6c 47 3d
       -0.048278965 0.042958435 -0.04207073 0.0486878
0002a0 32 09 e3 bd 99 0a ea bc 1d 43 6a 3d 27 7c f4 3c
       -0.11085738 -0.028569506 0.05719291 0.029844357
0002b0 8d 53 21 3e ed 17 72 3b ef f5 ba bd 77 64 c5 3d
       0.15754528 0.003694053 -0.09128939 0.09638303
0002c0 08 a1 68 bc 59 76 c3 bd e9 f0 e9 3d fb 9f a2 bd
       -0.014198549 -0.095440574 0.11422903 -0.0794067
0002d0 54 df 25 bd 37 0e 37 3c 41 74 e4 3d 5d b9 8a 3d
       -0.040496185 0.011172823 0.11154986 0.067736365
0002e0 1b 1f 98 bc 29 03 99 3d 3a a5 9d bd 3b 58 32 bd
       -0.01856952 0.07471306 -0.0769753 -0.043541174
0002f0 97 a3 ac bd 53 46 42 bc 66 69 35 3d 1d 0d 23 3e
       -0.0842964 -0.011857587 0.04428997 0.15922971
000300 c2 84 1e bd ae 85 10 3d 00 16 e3 bd 76 46 a8 bd
       -0.038700826 0.035283737 -0.110881805 -0.08216564
000310 75 29 79 bc c4 2b 93 3d 7c 2a 96 bd 7b fe 3c bb
       -0.015207638 0.07186082 -0.07332322 -0.0028838206
000320 ce 7e 89 3c 0d 22 86 3d 56 7c dc bd f9 88 af bd
       0.016784098 0.065494634 -0.10765903 -0.08571047
000330 83 f6 d4 bd 7e b5 9c 3d 1e b5 6d bd b2 10 bc 3d
       -0.10398581 0.076518044 -0.058034055 0.09182872
000340 bd 61 ce 3c 83 ce ec bc 71 63 54 bb c7 99 e0 3c
       0.02519309 -0.028907066 -0.0032407905 0.027417077
000350 0f 1c 0a 3d 0b 1a 94 bd f8 84 6c 3d 5e b0 1e 3c
       0.033718165 -0.0723153 0.057743996 0.009685604
000360 59 3f 07 be 53 7f 05 bd a4 b3 bf 3d 23 cd 31 bd
       -0.13207759 -0.03259213 0.093604356 -0.043408524
000370 a1 0e dd 3b ed 0e ae 3d 93 78 43 3d 04 d2 0a be
       0.0067461287 0.084989406 0.04772241 -0.13556677
000380 78 7d fe bd f7 3e d3 3d 76 3a d7 bc 50 89 37 3d
       -0.12426275 0.10314744 -0.026272994 0.044808686
000390 96 45 dc bb 33 4c 53 bd d8 9c 6e bc f2 00 0f 3e
       -0.0067221625 -0.05158634 -0.014563762 0.13965204
0003a0 19 75 32 3d 0c 57 8a 3d b5 11 9f 3d e5 5b c9 bc
       0.043568704 0.06754884 0.07767049 -0.024579952
0003b0 dd 11 5a 3d 73 ec 02 bd 58 59 98 bd d6 cf 93 bb
       0.053239692 -0.031963777 -0.07438916 -0.00451086
0003c0 80 29 a5 bc 7a 66 07 3e 16 bd 19 bc 41 fd 6b 3b
       -0.02016139 0.13222685 -0.0093834605 0.0036009105
0003d0 ae b7 c8 3d 54 78 f6 bd 64 8a c6 3d bd 7b d5 bd
       0.09800659 -0.120346695 0.09694365 -0.10423992
0003e0 d9 d4 15 3d 84 43 7b bc f3 af 6d bb 48 45 35 ba
       0.03657994 -0.015335921 -0.0036268204 -0.0006914926
0003f0 87 a7 be 3d 9d ef 36 bc 87 07 0b b7 77 5b 92 bc
       0.09309297 -0.011165527 -8.286798e-06 -0.01786588

conv1.bias f4 [32]
000000 b0 33 68 36 64 bd 0c b9 15 98 e3 b8 dc e3 84 38
       3.460078e-06 -0.00013421994 -0.00010852531 6.3366926e-05
000010 63 f9 a4 37 fd 44 6d 38 81 11 8c b8 8f bc a9 37
       1.9666453e-05 5.6569454e-05 -6.6789806e-05 2.0234174e-05
000020 31 ba 80 38 29 28 f3 b8 75 09 48 39 62 79 89 b7
       6.1381965e-05 -0.00011594623 0.0001907701 -1.6388196e-05
000030 29 c5 e4 38 30 90 f2 38 ea 2b 2f b8 58 04 1b b8
       0.00010908611 0.00011566316 -4.176415e-05 -3.6958925e-05
000040 ea aa c6 38 e5 ed 0f b8 55 20 0a b9 71 60 c7 35
       9.473211e-05 -3.4315413e-05 -0.0001317275 1.4854724e-06
000050 1c 81 2b 37 45 4a 55 38 ce 3a 12 b8 19 d5 c5 38
       1.0222455e-05 5.0852326e-05 -3.486388e-05 9.4333845e-05
000060 e7 ce 82 b8 09 67 ff b8 0e a0 92 b6 4d 95 2b 37
       -6.2374216e-05 -0.00012178539 -4.369772e-06 1.0227156e-05
000070 b0 83 6e b8 c5 5c ed 38 d9 e6 1e b8 66 51 5e b8
       -5.6866265e-05 0.0001131832 -3.788513e-05 -5.3004733e-05

bn1.weight f4 [32]
000000 18 27 6c 3f c1 34 65 3f 5b c2 6e 3f 7f 15 71 3f
       0.9224715 0.8953362 0.9326531 0.94173425
000010 88 f6 5e 3f 6e b4 83 3f 24 75 71 3f a1 3e 62 3f
       0.87094927 1.0289438 0.9431937 0.88376814
000020 65 c1 67 3f c4 11 63 3f 0f 3b 6e 3f 03 4d 79 3f
       0.9052947 0.88698983 0.93058866 0.97383136
000030 96 a5 6a 3f 1f ab 67 3f 4b 3b 69 3f 55 73 69 3f
       0.91658914 0.90495485 0.911061 0.9119161
000040 69 1d 74 3f a8 53 61 3f 52 11 72 3f c7 e6 73 3f
       0.95357376 0.88018274 0.9455768 0.95274013
000050 b1 56 61 3f f9 5d 73 3f a1 25 6a 3f a3 9a 77 3f
       0.88022906 0.95065266 0.9146367 0.9672033
000060 88 f0 7f 3f c3 03 75 3f ca de 70 3f 30 f7 70 3f
       0.99976397 0.95708865 0.9408995 0.9412718
000070 a1 39 70 3f fd cc 6d 3f 73 16 70 3f 79 70 78 3f
       0.93837935 0.9289091 0.93784255 0.9704662

bn1.bias f4 [32]
000000 da ed 2f 3e d9 f4 f2 3c fb fc 6e 3d f9 59 b6 3d
       0.17180577 0.029657768 0.05834673 0.0890388
000010 37 c2 aa 3d f6 d2 67 3c 4c 90 0e 3e d7 87 db 3c
       0.08337825 0.014149418 0.13922232 0.026798172
000020 90 04 13 3c 1a 8b bf 3c 34 78 24 3e e2 5d 0a bd
       0.008973256 0.023381758 0.16061479 -0.03378094
000030 97 bd c6 3d 8c fe 84 bc 66 62 49 3d 1a de 09 3e
       0.0970413 -0.016234659 0.049166106 0.13463631
000040 ac 66 91 3b fa 50 99 3d 07 b8 a8 3c 33 30 c5 3c
       0.0044372883 0.07486148 0.020595564 0.024070835
000050 09 1e 6a 3c 2b c8 26 3e 62 13 ec 3d 9e e2 b1 3d
       0.0142893875 0.16287296 0.115271345 0.08685802
000060 e7 73 a8 3d 6b 66 93 3d 9d 5e d9 3d 86 fd 2e 3d
       0.082252316 0.07197269 0.10613749 0.042722248
000070 a9 0e 53 3d 66 ef 3e 3e 2e 51 ec bc 21 2f 5a 3d
       0.051527653 0.18646011 -0.028847303 0.053267602

bn1.running_mean f4 [32]
000000 e8 94 fe b6 04 c9 0b b9 0b f6 f0 b8 32 57 8b 38
       -7.587125e-06 -0.00013330957 -0.00011489921 6.644278e-05
000010 58 67 51 37 c3 ad 58 38 97 b0 8d b8 a1 e9 d4 37
       1.2481432e-05 5.166024e-05 -6.756296e-05 2.5381161e-05
000020 d7 ee 84 38 c8 c6 03 b9 7b 2d 52 39 fb 0e 7d b7
       6.338738e-05 -0.00012567185 0.00020044103 -1.5083463e-05
000030 77 cb d6 38 1e 4e d5 38 25 35 09 b8 bb f8 09 b8
       0.000102422135 0.00010171182 -3.271284e-05 -3.2894994e-05
000040 8a cb c3 38 59 37 14 b8 08 a6 0e b9 96 6d d8 b6
       9.336237e-05 -3.5337496e-05 -0.00013604027 -6.450059e-06
000050 e8 ab 39 37 52 d4 6a 38 f9 15 39 b8 2b 6b d1 38
       1.1066884e-05 5.5987686e-05 -4.41279e-05 9.985858e-05
000060 ea 11 84 b8 44 bb ec b8 57 3f 55 b7 67 6c 85 37
       -6.297587e-05 -0.00011288238 -1.2710537e-05 1.5905314e-05
000070 c2 12 6a b8 65 96 da 38 5e 71 09 b8 52 62 3b b8
       -5.5807417e-05 0.00010423063 -3.2768927e-05 -4.4675842e-05

bn1.running_var f4 [32]
000000 86 f0 4f 39 88 da 71 39 3d 29 4d 39 90 f0 31 39
       0.0001983066 0.0002306496 0.00019565686 0.00016969652
000010 ba d2 74 39 65 21 a3 39 b4 37 3c 39 1f 93 82 39
       0.00023348155 0.00031114664 0.00017949828 0.00024905146
000020 97 0f 29 39 72 17 38 39 71 7a 1b 39 e4 01 74 39
       0.00016122904 0.00017556341 0.00014827565 0.00023270358
000030 a2 ae 61 39 35 2e 68 39 59 fe 5a 39 05 f1 94 39
       0.00021522728 0.00022142458 0.00020884852 0.00028408333
000040 f1 38 60 39 df 09 45 39 e5 1a 77 39 73 a3 49 39
       0.00021383517 0.00018791061 0.00023565775 0.00019229743
000050 7f 1b 45 39 11 ea 73 39 4b b6 62 39 2c f0 81 39
       0.00018797627 0.00023261482 0.00021620949 0.0002478374
000060 94 23 5d 39 7f 44 69 39 4c 78 4d 39 72 cd 62 39
       0.00021089456 0.00022246128 0.00019595138 0.00021629574
000070 88 33 64 39 25 6b 4a 39 15 5f 69 39 5a 01 60 39
       0.00021762971 0.00019304136 0.00022256032 0.00021362808

conv2.weight f4 [32, 32, 3]
000000 ea bf 9c bc b5 e5 a3 bd 10 8b 2e be 5b 4a 2d 3b
       -0.01913448 -0.080027975 -0.17045236 0.0026442024
000010 a4 36 8f 3d f1 95 a7 3d f2 8f 75 3b 27 47 49 3d
       0.06992844 0.08182896 0.0037469831 0.04914012
000020 85 62 06 3e 26 28 f4 bd b6 ad 82 bd 24 4d 0d be
       0.1312352 -0.1192172 -0.06380789 -0.13798958
000030 f4 fa 23 bd 02 c2 75 bd 49 b7 84 ba b4 ee e6 bd
       -0.04003425 -0.059999473 -0.0010125424 -0.11275998
000040 8b d1 33 bd 4e 78 e8 bd b1 cc d3 bd cb 7c 6a bd
       -0.043901008 -0.11351071 -0.10341776 -0.057247918
000050 42 d5 b6 bd 12 0e 57 3c ac bd aa bd ef 22 a1 bd
       -0.089273944 0.013125913 -0.08336958 -0.07867991
000060 59 8e 61 bd 4c e9 28 be ff 4b f0 3c ec 0a 18 3e
       -0.055067394 -0.16495246 0.029333113 0.14847916
000070 0a b9 c2 bc 7a cc d5 3c 0f 5a 7a 3d 83 14 bf 3c
       -0.023769874 0.026098479 0.061121043 0.02332521
000080 40 0b 3d bd db 8f 8e bd fa 2d f9 3d 2d 0a 89 bd
       -0.046153307 -0.06961032 0.121669725 -0.06691394
000090 54 bf a8 bc 5d aa 11 bd 2c e9 0a bc 40 8d 09 bc
       -0.020599045 -0.03556286 -0.008478444 -0.008395493
0000a0 23 c3 00 be a6 7d 66 3d 56 2a 4f bd 6f a3 ef 3d
       -0.12574439 0.05627217 -0.050577484 0.11701094
0000b0 4d 9d 14 bd b7 3d d7 3d 92 b7 c2 bc aa 26 b0 3c
       -0.036282826 0.10509818 -0.023769174 0.021502811
0000c0 7e 73 22 3d 34 15 ab bb 3c b9 1e bc 20 5d 3a bd
       0.039660923 -0.0052210335 -0.009687718 -0.045498967
0000d0 ef a2 da bc e2 ca 6f 3b 9f 38 45 3c df f5 d7 3a
       -0.02668902 0.0036589433 0.012037425 0.0016476474
0000e0 05 c3 be 3d cd 56 d3 3d c1 fc 6b 3d 0d 9f 6b 3d
       0.09314541 0.1031929 0.05761409 0.05752473
0000f0 e9 bc 72 3d d6 26 da bd 31 55 7a bd 99 2d 39 bc
       0.05926219 -0.106519386 -0.0611164 -0.011302375
000100 82 f9 26 bc 86 8c 61 3c 16 ec 16 3d f1 58 bf 3d
       -0.010191323 0.013766414 0.036846243 0.09343136
000110 b5 6d ef bd 34 28 e3 3c 80 c4 77 3d b2 17 35 3c
       -0.11690847 0.027729131 0.06049013 0.011053013
000120 a0 a8 4e 3d e8 2a 16 3e f9 d5 89 3c 8a d6 25 bd
       0.050453782 0.14664805 0.016825663 -0.040487804
000130 f6 b5 e8 3c 95 b5 07 3d 84 5a 02 bb 8c 62 96 3b
       0.028407078 0.033132154 -0.0019890377 0.0045893844
000140 3b 23 1f 3d ea 59 a6 bb 13 bc 3a bd 5f 41 29 3b
       0.038851958 -0.0050766366 -0.045589518 0.0025826318
000150 89 8d a2 3d 39 61 89 bc cf 2a 01 bd 32 1f a6 3d
       0.07937152 -0.016769992 -0.031534966 0.08111419
000160 8e 00 95 bd 85 16 27 bd ad 93 89 bd 55 bf 22 3e
       -0.072754964 -0.04079296 -0.0671762 0.158933
000170 e1 06 cd bd cf 0e 3a 3d e4 b3 ca bd 5e e2 cf 3c
       -0.10011078 0.04542428 -0.09897593 0.025376495
000180 79 a6 42 3d 98 18 47 bc aa 89 e1 3c b5 de 7e ba
       0.047522042 -0.01215186 0.027531464 -0.0009722517
000190 77 0e 54 bd 15 58 00 3d a0 27 60 3d b9 93 66 3d
       -0.051771607 0.031334 0.05472529 0.056293223
0001a0 02 5a 96 3d e9 86 6c bd de 24 95 3d da 22 84 3d
       0.073413864 -0.057745848 0.072824225 0.0645196
0001b0 dd 01 25 3d 63 d7 1e bd 6d 5d 67 3d c1 ae 67 bd
       0.04028498 -0.038779628 0.056485582 -0.056563143
0001c0 80 94 ec bd 37 04 e4 3a d4 2e 4d bd f3 73 01 3e
       -0.115517616 0.0017396276 -0.050093487 0.12641887
0001d0 ce 17 ee 3d fe 55 07 3e 8a 54 c9 bc 42 f2 46 bd
       0.11625634 0.13216397 -0.024576444 -0.04857088
0001e0 8a 2e 01 be 97 ed 5f 3c 2b 0e ab bd 3f 31 99 bd
       -0.1261541 0.013667486 -0.08352312 -0.07480096
0001f0 7e b8 33 bb 2d 16 47 bd a4 6d 48 bd d0 86 69 bd
       -0.0027423198 -0.048605133 -0.048932686 -0.057013333
000200 e8 ad 67 bd 56 f7 f2 3d 3e d1 db 3c 66 6d c8 3d
       -0.056562334 0.11863582 0.026833173 0.09786491
000210 b2 15 e9 3c 48 4e cc bc 30 14 c3 bb 85 4d 76 bd
       0.028452728 -0.024939671 -0.0059533343 -0.060132522
000220 7b f3 64 bd e5 17 69 3c 5c 6e 3f 3d 7a b4 0e bd
       -0.055896264 0.014226888 0.046736106 -0.034840085
000230 72 6c 73 3d 0a 34 ed 3c 8f 6c 05 3c 44 37 39 bd
       0.059429593 0.028955478 0.008143558 -0.04521872
000240 0f 74 4c bd 94 d6 01 bd 0b a4 d7 3d 9f 64 c4 3d
       -0.04991537 -0.03169878 0.105293356 0.095895045
000250 31 2c 36 3d 8f ad a8 bd 88 bf a6 3c c3 b8 f5 bd
       0.044475738 -0.08236229 0.020355001 -0.11998131
000260 c4 b0 4a 3d 2c de eb bb 33 7c b2 3c f9 4e 8f bd
       0.049484983 -0.007198116 0.021787738 -0.06997485
000270 00 c6 9d 3d 55 f6 82 3d d4 a8 f1 ba 26 a9 33 bc
       0.07703781 0.0639464 -0.0018437156 -0.010965621
000280 f7 56 0f 3b f6 6c 8d ba 86 13 07 bd d0 6a 95 3d
       0.0021871903 -0.0010789919 -0.032977603 0.072957635
000290 c4 c1 83 bd 1c 55 7c 3d 5a 41 a9 bd de f3 c5 3c
       -0.06433442 0.061604604 -0.08264418 0.024164136
0002a0 b7 be b9 3d 08 cf a9 bd 11 e2 b4 3d 76 69 66 bd
       0.09069579 -0.08291441 0.08832181 -0.05625292
0002b0 5a 5b e9 3c 8a f9 1f bd 6b 20 22 3e b6 e1 0e 3e
       0.028485943 -0.03905634 0.15832679 0.1395329
0002c0 2b 52 be 3b bf b0 8b 3d 1f 9e 5a bd 77 38 51 3d
       0.005808135 0.06820821 -0.053373452 0.05107924
0002d0 d6 ee 64 bc 00 9c 26 3d 6b 92 41 bd 84 f7 96 3d
       -0.013972959 0.040676117 -0.047258776 0.073714286
0002e0 27 14 fc 3d c5 d9 72 3d 2c 2a 7a 3d c7 c0 9c 3d
       0.12308531 0.059289712 0.061075374 0.07653957
0002f0 6f b6 e1 bd d5 df 3e 3e 80 1b 24 bc 60 a1 27 3d
       -0.110211246 0.18640073 -0.010016322 0.040925384
000300 00 5f e1 bd 51 7b 09 be ac 36 dd bd 13 c2 a1 3d
       -0.11004448 -0.13425948 -0.108014435 0.07898345
000310 20 2c 17 be 7f 99 cb ba 9b 6f 8b 3c 72 5f b2 3c
       -0.14762926 -0.0015533416 0.017020991 0.021774027
000320 04 7c ea bc ad 12 cb bc 83 d7 a7 bd d4 63 89 3d
       -0.028623588 -0.024789179 -0.081954025 0.06708494
000330 86 52 96 bd 2f a3 ba bc 47 8c 7d 3d 16 65 34 bd
       -0.07339959 -0.02278289 0.061901357 -0.044041716
000340 76 91 0d 3d c6 e8 0d be 89 70 19 bd 34 b3 ac bd
       0.03456255 -0.13858327 -0.037460838 -0.08432618
000350 14 86 0b 3c df 0f 29 bc 2e 5b 93 3d 36 02 ef bc
       0.008515853 -0.010318725 0.071951255 -0.029175859
000360 70 24 83 bd bc 76 94 bb 2d df 16 3c 0c de a1 3c
       -0.06403434 -0.004530756 0.009208483 0.0197592
000370 64 ff 18 bd 54 b0 d6 3d b2 28 73 bd ca 4d a9 3c
       -0.037352934 0.10482851 -0.059364982 0.020666976
000380 ee af 23 bd 0d 40 02 be 61 a0 c3 bc 76 69 ed bd
       -0.0399627 -0.12719746 -0.023880186 -0.11592381
000390 1e f9 0c bd 3d e1 15 bc 76 22 b4 bc 05 64 49 3c
       -0.034417264 -0.009147939 -0.021989089 0.012291913
0003a0 69 8c 5d 3d 63 02 4b 3d ac 2d be bd 92 87 9e bd
       0.054088984 0.049562823 -0.09286055 -0.07740702
0003b0 e2 44 08 bd 7b 98 7f bd e1 e9 2b bd dd 12 ab bc
       -0.033268817 -0.062401276 -0.04197109 -0.020883018
0003c0 d4 01 90 3b 83 68 cf 3d f9 86 17 3e 5a d5 76 bd
       0.004394749 0.10127356 0.14797582 -0.06026206
0003d0 7d 3e da 3c 43 04 11 bc 11 62 28 bd 9b f9 09 3d
       0.026641125 -0.008851114 -0.04110915 0.033685308
0003e0 38 e0 26 3d 08 f6 a3 bd b6 db 2f bd fc d6 38 3d
       0.040741175 -0.08005911 -0.042934142 0.0451269
0003f0 3b 17 2f bd e0 1d 8e bd e0 fe c4 bd 9e 87 98 3d
       -0.042746764 -0.06939292 -0.09618926 0.07447742

conv2.bias f4 [32]
000000 61 37 b9 35 23 5b d4 b4 13 6b 9d b5 dc a9 2f b3
       1.3799691e-06 -3.9554388e-07 -1.1728574e-06 -4.089985e-08
000010 3f 54 fb 35 be 28 94 b5 d8 04 00 b1 cf 4c ab 35
       1.8725476e-06 -1.1038717e-06 -1.8629205e-09 1.2762847e-06
000020 f0 10 71 35 c5 54 53 b5 55 3c 80 b5 64 01 0f 35
       8.9804143e-07 -7.872698e-07 -9.554302e-07 5.3273675e-07
000030 d4 e8 94 35 b0 55 30 b5 ba 6c 6d b5 87 1b b8 34
       1.1094621e-06 -6.56898e-07 -8.84476e-07 3.42927e-07
000040 84 0c fc 35 0a b9 46 b5 7e 5b 03 b5 fe 71 d8 b3
       1.8779106e-06 -7.4030015e-07 -4.893444e-07 -1.0079019e-07
000050 d9 e7 de b4 2f f1 13 b6 80 7c 93 b5 37 e2 89 33
       -4.1519414e-07 -2.2045094e-06 -1.0988588e-06 6.420708e-08
000060 dc d5 08 36 4f af d7 34 f9 20 4c 34 30 b5 4e 34
       2.0390062e-06 4.0174424e-07 1.9010976e-07 1.925116e-07
000070 47 da 8b 35 b5 59 e1 b5 05 9d ca b5 b7 54 85 34
       1.0419834e-06 -1.6789915e-06 -1.5095872e-06 2.483482e-07

bn2.weight f4 [32]
000000 ae 4e 83 3f ab 8e 61 3f c2 82 8e 3f ad fe 4d 3f
       1.0258386 0.8810832 1.1133654 0.8046673
000010 1b 3c 73 3f 9a b1 62 3f d0 68 80 3f 84 06 77 3f
       0.9501359 0.8855225 1.0031986 0.9649432
000020 88 22 63 3f b4 12 88 3f 12 3a 8f 3f 75 16 5c 3f
       0.88724566 1.0630708 1.1189597 0.85971767
000030 d5 49 84 3f 0d ea 5d 3f 7c bd 60 3f 6e f7 81 3f
       1.0335032 0.8668526 0.8778913 1.0153635
000040 c6 fa 81 3f 65 60 4c 3f a0 67 4f 3f ed eb 5f 3f
       1.0154655 0.79834586 0.81017494 0.8746937
000050 ca 24 8c 3f f7 dd 81 3f bc 79 4b 3f d7 2b 8c 3f
       1.0948727 1.0145863 0.79482627 1.0950879
000060 49 63 7f 3f f5 05 6a 3f 17 c7 64 3f 55 ee 67 3f
       0.9976087 0.9141534 0.89366287 0.9059804
000070 51 c6 65 3f ca c8 84 3f e4 40 70 3f f6 3c 5f 3f
       0.8975573 1.0373776 0.93849015 0.87202394

bn2.bias f4 [32]
000000 f5 18 b1 3d 31 2f 45 3d 37 88 25 3b 3e e8 28 bb
       0.08647338 0.04814071 0.0025258192 -0.0025773193
000010 9a 90 f6 3d f2 53 1b 3e 7e b6 22 3e 79 5b 03 3e
       0.12039299 0.15168741 0.15889928 0.12827863
000020 41 19 19 bd 1d e9 b6 3b f2 43 94 3c 0d f6 48 bd
       -0.0373776 0.0055819885 0.018098805 -0.049062777
000030 bb e4 7b bd 0f fb 13 be 8e e9 76 3d 66 13 7d 3d
       -0.06149743 -0.1445124 0.06028133 0.061786078
000040 ea af 39 bd 66 c8 c5 3d 33 52 83 3d ad 40 5d bd
       -0.04533378 0.096573636 0.06412163 -0.054016758
000050 dd 5b e7 3b cb 9c 03 3e 62 2b 3c 3d e5 9a 1c 3e
       0.0070605115 0.1285278 0.04593981 0.15293463
000060 c2 a9 1c 3d 5e ee c9 3d fb d4 0f be ff 54 c3 3d
       0.03824783 0.09859918 -0.1404609 0.09537696
000070 b5 20 99 3d 0a e0 50 3d 74 61 07 3e ea 33 0b bd
       0.074769415 0.05099491 0.13220769 -0.033985056

bn2.running_mean f4 [32]
000000 f8 75 a0 be b9 c3 4a 3f d5 41 42 bf 7a 21 94 3e
       -0.31340003 0.792049 -0.758817 0.2893179
000010 fb c1 e5 3d 21 48 f2 3a d9 71 c0 be 39 ad a0 be
       0.112186395 0.0018484631 -0.3758686 -0.31382158
000020 bd c4 0e 3e 20 0e 23 bf 7a fc fd be a1 e0 0a 3e
       0.13942237 -0.6369343 -0.49606687 0.13562252
000030 e6 aa c5 be 05 27 5b 3e 3e bf cd bc db 9b 17 bf
       -0.38606948 0.21401604 -0.025115605 -0.5922219
000040 ef 8c 10 bf f8 52 ed 3d 42 e2 6d bd d5 3d 59 3e
       -0.5646505 0.11588091 -0.058077104 0.21214993
000050 02 c1 45 bf d9 30 a5 be cd fc 43 3e f7 cc b9 be
       -0.7724763 -0.3226383 0.19139405 -0.36289188
000060 75 7c 17 bf f2 25 5d bd f7 22 69 3e b5 f1 27 3e
       -0.5917428 -0.053991266 0.22767244 0.16400798
000070 81 af 37 3e e6 0e a4 be 37 96 a1 bd 8d b4 e8 3e
       0.17938043 -0.32042617 -0.07889979 0.4545025

bn2.running_var f4 [32]
000000 96 c9 ad 3e 19 96 65 3f 2d 49 81 3f 7e af 83 3e
       0.3394286 0.89682156 1.0100456 0.25719827
000010 1a 6e 21 3e eb 73 69 3e c4 7a 99 3e 9b 82 95 3e
       0.15764657 0.22798125 0.29976475 0.29201207
000020 9e 07 4a 3e 13 a2 7a 3f f9 65 30 3f 0f fc 3a 3e
       0.19729468 0.97903556 0.689056 0.18260215
000030 bb 25 f6 3e c3 37 70 3e be 2d 2e 3e 11 cb 27 3f
       0.4807566 0.23458771 0.17009637 0.6554423
000040 8d 1e 1e 3f 82 f0 4d 3e de 32 60 3e 26 ed 51 3e
       0.61765367 0.20111278 0.21894404 0.20500621
000050 2d 23 80 3f 60 1b 60 3e 3d 96 2f 3e 5c ee 01 3f
       1.0010735 0.21885443 0.17147155 0.5075433
000060 9a e8 27 3f 2a 15 72 3e ed 84 84 3e cb 83 64 3e
       0.65589297 0.23640886 0.25882664 0.223159
000070 3b ab 6a 3e 7b d2 e2 3e 9f 91 25 3e d8 b9 d0 3e
       0.22916882 0.4430121 0.16168831 0.40766788

conv3.weight f4 [64, 32, 3]
000000 da 0e 28 3d fe 10 d3 3d 67 3b 44 3d 83 87 73 3d
       0.04102979 0.103059754 0.047908213 0.059455406
000010 45 74 c5 bc 24 4f 43 bd 2e 5f 6c bd e9 54 bd 3c
       -0.024103293 -0.047682896 -0.057707958 0.023111777
000020 84 9b a9 bc a5 ed 8c bd 17 78 95 3d d4 75 a2 bc
       -0.020704038 -0.068812646 0.07298296 -0.019831575
000030 ad 3a 62 3c ee 18 82 bd 65 a8 71 3d 91 c7 3d bd
       0.013807935 -0.06352411 0.058998484 -0.0463329
000040 6d cb 26 3c 43 3f 63 3d 1d 81 34 bd 73 b5 46 bd
       0.010180336 0.055480253 -0.044068445 -0.048512887
000050 fe 1a b3 bd 00 cf 02 3e ed dc 60 bd f3 e0 80 3c
       -0.08745383 0.12774277 -0.05489819 0.015732264
000060 97 ec 9c 3c 5c a1 dc bd cf cd 54 bd e2 44 f1 3c
       0.019155784 -0.10772964 -0.051954087 0.029451791
000070 af f5 c4 bd 83 77 be 3c d9 01 03 3e 3d ae 13 bd
       -0.09617173 0.023250347 0.12793674 -0.03605484
000080 56 57 64 3d 38 d2 7a 3d 13 22 45 3d 80 59 23 bd
       0.055747353 0.061235636 0.0481282 -0.039880276
000090 19 d4 07 bd df 63 15 be da 0c 1a 3d 4b 49 21 3d
       -0.033161256 -0.14588879 0.037609912 0.03937654
0000a0 de 75 ca 3c d2 18 c8 3d 88 01 75 3d 0d 72 0f bd
       0.024714407 0.09770359 0.059815913 -0.035020877
0000b0 c6 f6 e6 3c 73 bd 98 3d c1 16 97 bd 19 48 64 bb
       0.028193843 0.074580096 -0.07377387 -0.0034833013
0000c0 0a 08 52 bd 58 5e 40 bc 3f c7 36 3d 03 76 24 3d
       -0.051277198 -0.011741243 0.04462361 0.040151607
0000d0 ee 81 ab 3d cb ac 91 3d a4 16 98 bd 58 d1 59 3d
       0.083743915 0.07113036 -0.07426193 0.05317816
0000e0 b2 cb fb 3c 54 7e 98 3d 4f 2a fe 3d 22 a1 a3 bd
       0.030736778 0.0744597 0.124104135 -0.07989718
0000f0 79 1f ab bd cd c0 13 bd 66 fc 43 3d 1f 4a 06 bb
       -0.08355612 -0.03607254 0.047848128 -0.0020490957
000100 e8 94 b4 bd 6c 6f e2 3c b2 46 fe bd 47 a4 ad 3d
       -0.08817464 0.02764102 -0.12415828 0.08478599
000110 bd f9 af 3d 40 cb 03 3b f5 5f 57 3d af 4d 7e 3d
       0.08592556 0.002011016 0.052581746 0.062085804
000120 14 64 0d 3c e6 c5 74 bd 33 e4 9e bd b9 93 ad 3d
       0.0086298175 -0.059759043 -0.07758369 0.084754415
000130 ef a6 d8 bc f6 47 19 3d 15 32 0f bd c8 c7 20 bd
       -0.026446788 0.037422143 -0.03495987 -0.039253026
000140 c3 00 57 3c 6e ab 6e bd 4e 4a 50 3d 8e 46 d2 3c
       0.01312274 -0.058268957 0.050852112 0.025668409
000150 6d 65 80 3c bd 3d 94 bd b7 f8 d5 3d 21 c1 cb ba
       0.015673364 -0.07238338 0.10447829 -0.0015545228
000160 f1 94 e5 bc db c4 97 bc 0e cf 33 3c ad 28 2e bd
       -0.028025122 -0.018526485 0.010974659 -0.04251926
000170 ea f3 97 3d 1e 81 0a bd ec 64 d4 3d 93 01 be 3c
       0.0741957 -0.033814542 0.10370812 0.02319411
000180 84 4a 3a bd 22 8c 03 3d 2f 4f 5b bd 3d 94 2a 3d
       -0.04548122 0.032116063 -0.053542312 0.041645277
000190 e8 79 81 3d fe 42 fc 3c 59 3b 43 3d 27 b7 9a bd
       0.0632208 0.030793663 0.04766402 -0.07554465
0001a0 74 57 4f bd 9f 9b 6a bc 69 3c 57 3c 46 1a a9 bd
       -0.05062051 -0.0143193295 0.0131369615 -0.082569644
0001b0 a3 aa 0f be af aa 01 bb 74 8b e2 bd 04 2d 2b 3d
       -0.14029936 -0.0019785573 -0.11061755 0.041790977
0001c0 18 0d 8b bc 9a 79 bd 3d 82 f5 99 3c d3 bb a6 3c
       -0.016974017 0.09251709 0.018793825 0.020353233
0001d0 d2 95 81 bd 21 5c c3 3d ce 30 14 bd 1c 88 a6 bd
       -0.06327404 0.095390566 -0.036179356 -0.081314296
0001e0 ff 0a 00 bd d3 fd a8 3d 97 48 12 3d fd f1 4b 3d
       -0.031260487 0.08251538 0.03571376 0.049791325
0001f0 b4 e1 c3 bc be 6b 15 bc b8 3e 1e 3c 4d 52 2a be
       -0.023911335 -0.009119926 0.009658508 -0.16632958
000200 25 94 d0 bd 8a a4 8f 3c 99 e4 3a 3d b5 2e c4 bd
       -0.10184506 0.017534513 0.045628164 -0.09579221
000210 6a 7b ba 3c 6a 4b 13 3c 91 09 9e bc 58 c6 8a 3d
       0.022763927 0.008990148 -0.019291671 0.06776112
000220 7a 66 be 3c 77 5e ed bb c4 fd 8f bd fa 61 3c bc
       0.023242224 -0.007243927 -0.07030824 -0.011497969
000230 75 d9 1a bd cd f3 c4 bc 62 c0 6b 3d 86 da 1c bc
       -0.03780504 -0.024042035 0.057556517 -0.009573584
000240 e0 05 3c 3c 56 45 9c bd 19 b4 1e bd 01 b9 ee 3c
       0.01147601 -0.07630412 -0.038745973 0.029140951
000250 69 aa 8c 3d dc 93 2e bd f2 75 84 3d 27 21 b4 3d
       0.06868441 -0.04262148 0.06467809 0.08795386
000260 58 d2 76 3d 18 37 22 3d 33 b5 3c 3b 2d 66 7c bb
       0.060259193 0.039603323 0.0028794527 -0.003851305
000270 ac 70 1d bd 5a 02 76 bd a3 59 65 bb ae 35 f9 bc
       -0.03843753 -0.060060836 -0.0034996055 -0.030421104
000280 50 92 06 bd e5 a1 13 3d 5c da 57 3d d7 8a da 3d
       -0.03285438 0.036043067 0.052698478 0.10671013
000290 0c fc 8b 3d cb c9 89 3d ce a0 51 bd 5f 85 a5 3d
       0.068351835 0.06727942 -0.051178746 0.08082079
0002a0 e5 79 32 3d d3 1d 88 bd 2d c9 c6 bd c0 54 8c 3c
       0.04357328 -0.066463135 -0.0970634 0.017130256
0002b0 b8 f1 05 be 33 bd f1 bc 7f d6 47 3d 9e 21 86 bd
       -0.1308049 -0.029509163 0.048788544 -0.06549381
0002c0 76 82 45 3d 7e c0 38 bb ba d7 d9 bd 45 2e 80 3b
       0.04822012 -0.0028190906 -0.1063685 0.0039117658
0002d0 cb 2d 29 bd 51 f6 a7 bc e7 d6 48 bd 15 39 e2 3c
       -0.041303437 -0.020503195 -0.04903307 0.02761511
0002e0 4d 19 65 bd 32 35 25 3d ed 50 1a bd 1f 53 67 3d
       -0.05593233 0.040333934 -0.037674833 0.056475755
0002f0 e8 1f 8c bc 86 df 25 bd 2f c7 31 3d e5 ce 59 bb
       -0.017105058 -0.04049637 0.043402847 -0.003323489
000300 3b c6 80 bd ed 67 7f bd a6 b7 22 3c a2 5d eb bc
       -0.062878095 -0.06235497 0.0099314805 -0.028731171
000310 3c e2 e6 bb 28 6b f6 3d 74 10 66 bc c1 1e ec 3c
       -0.007046012 0.12032157 -0.014042009 0.028823258
000320 98 4d cd 3d 87 87 32 bd ce 63 aa bd 7d 95 0b 3d
       0.100245655 -0.04358628 -0.083198175 0.03407811
000330 90 7c 10 bc f2 1b 24 3b 2b 53 8c 3d 28 1e 01 be
       -0.0088187605 0.002504107 0.068518005 -0.1260916
000340 61 43 34 bd 52 8e 08 3d b4 8f f5 bd e7 05 0c 3b
       -0.04400957 0.033338852 -0.119903 0.0021365823
000350 4c b6 c5 3d a3 a1 a4 bd 83 28 cb bd 46 45 33 bd
       0.09653911 -0.08038642 -0.09919836 -0.043767236
000360 bd 1b ba bd 89 56 f2 bd fe 03 de bc a8 4d c0 bc
       -0.09087322 -0.118329115 -0.027101513 -0.02347453
000370 c7 88 35 bd 29 67 32 bc a4 47 a6 3d a5 62 c4 3d
       -0.044319894 -0.010888853 0.08119133 0.095891275
000380 07 5c b9 3d c2 1b bb 3c a7 e1 65 3c 5b 27 79 bb
       0.09050756 0.022840384 0.0140308505 -0.0038017842
000390 eb b9 be bd 2f 44 1a 3c c7 2d 8c 3c 6e 8f ac 3d
       -0.09312805 0.00941567 0.017111672 0.084257945
0003a0 47 5e f9 3c 21 48 87 bd c5 a5 f7 3d 19 c9 0c 3d
       0.030440463 -0.06605554 0.12092165 0.03437147
0003b0 fa f8 ba bd dc c7 7a 3d 9c bc 5e 3d bf 3b 47 bd
       -0.0912952 0.061225757 0.05437909 -0.048640963
0003c0 58 a1 a4 3d e2 8e d9 3d 80 99 1b 3c 8d b6 d8 3c
       0.080385864 0.10622956 0.0094970465 0.026454234
0003d0 7c 0b a8 3d 2e 39 30 bc 74 c3 08 3e 7f 30 6f bd
       0.082053155 -0.01075582 0.1335581 -0.05839586
0003e0 26 15 12 bd 5d ed 7d 3d 7f 4d 12 bd e0 e3 6f bd
       -0.0356647 0.061993945 -0.035718437 -0.058566928
0003f0 95 0a 05 3e ee 2e ef bc 23 dc 12 3e fa 02 d8 bd
       0.12992318 -0.029197183 0.14341788 -0.10547443

conv3.bias f4 [64]
000000 6c 0b 3d b4 79 e2 dd b3 7c 1b ac 35 73 28 19 32
       -1.7606152e-07 -1.03323096e-07 1.2822998e-06 8.914969e-09
000010 b1 63 3d 34 5e a2 74 b5 bc 3a 10 33 f6 dd cb 33
       1.7638264e-07 -9.113336e-07 3.358103e-08 9.4932986e-08
000020 26 11 0d 35 9a 7d df b4 69 13 56 34 40 ee 28 b4
       5.255155e-07 -4.1628374e-07 1.9937364e-07 -1.5732894e-07
000030 89 07 2e b4 c5 aa b2 33 3c de 57 b4 79 eb 7a b3
       -1.6207754e-07 8.319834e-08 -2.0104284e-07 -5.8421822e-08
000040 1e fb 2d 35 76 f1 52 b4 3b 10 4a 35 b2 47 97 34
       6.4812946e-07 -1.9645617e-07 7.527448e-07 2.8178107e-07
000050 63 dc 2b 35 d2 e7 86 34 80 49 53 b3 8a 09 2e b3
       6.402317e-07 2.5128116e-07 -4.9194114e-08 -4.0521208e-08
000060 a9 1f 88 34 3d 86 1b b5 72 f1 8e b4 80 f4 7b 32
       2.535501e-07 -5.793734e-07 -2.6625236e-07 1.4665716e-08
000070 ba 9e aa b5 e9 3e ad b2 49 55 4a b4 46 5e f8 b0
       -1.2712183e-06 -2.0168459e-08 -1.8843743e-07 -1.8071169e-09
000080 0b 2d 1d b4 b2 00 16 35 37 07 06 b4 50 54 35 32
       -1.4638151e-07 5.5880366e-07 -1.2482347e-07 1.0554757e-08
000090 02 6f 82 35 30 51 7a 34 70 dc 70 b3 f1 3f b2 33
       9.718062e-07 2.33126e-07 -5.607984e-08 8.300402e-08
0000a0 fe 9e 06 33 2e 58 37 35 1c 02 64 b3 a1 4d 3c b4
       3.134391e-08 6.830113e-07 -5.3087305e-08 -1.7537106e-07
0000b0 75 4e fb b4 bd d5 20 b4 f5 44 f4 33 bc 0d f3 b4
       -4.6809478e-07 -1.4978919e-07 1.13746786e-07 -4.527227e-07
0000c0 0f cf 69 b4 0c f9 4e b3 ad ce b7 33 a8 ba e8 32
       -2.1775143e-07 -4.818962e-08 8.559196e-08 2.7093236e-08
0000d0 88 74 6c 35 71 43 4b b4 3c e2 7d b4 53 bd 66 b3
       8.8086426e-07 -1.8930383e-07 -2.3644765e-07 -5.3723237e-08
0000e0 b8 d7 ea b3 07 86 c2 b2 02 6a 4a b4 0a 66 3b b5
       -1.0935713e-07 -2.2645521e-08 -1.8851281e-07 -6.9811415e-07
0000f0 a2 41 f4 b3 3a 57 80 34 81 ca e3 b3 3b 8e 01 b4
       -1.1374074e-07 2.3905324e-07 -1.06073465e-07 -1.2065804e-07

bn3.weight f4 [64]
000000 57 65 4b 3f 47 1d 3b 3f a0 d8 64 3f 62 e6 69 3f
       0.7945151 0.7309155 0.89393044 0.9136716
000010 bc 72 7f 3f ad 79 73 3f bf 81 49 3f 18 94 88 3f
       0.99784446 0.9510754 0.787136 1.0670195
000020 db 80 82 3f 72 d6 43 3f e4 45 56 3f 59 ed 4f 3f
       1.0195574 0.7649909 0.83700395 0.8122154
000030 0b 3d 72 3f 23 f8 60 3f 16 89 6b 3f 13 db 47 3f
       0.94624394 0.87878627 0.9200605 0.78068656
000040 47 cc 44 3f 44 7c 50 3f 4f 65 59 3f 04 a7 46 3f
       0.768742 0.81439614 0.8492021 0.77598596
000050 01 a4 7e 3f 12 a1 72 3f f1 a9 59 3f 00 f8 40 3f
       0.99469 0.94777024 0.85024935 0.7537842
000060 eb 6c 62 3f b5 7a 82 3f c5 88 65 3f 74 72 61 3f
       0.88447446 1.0193697 0.8966182 0.88065267
000070 35 32 82 3f 52 18 51 3f de 7a 47 3f 68 8e 4c 3f
       1.0171572 0.81677735 0.77921855 0.79904795
000080 35 9d 65 3f 53 f9 7f 3f 4f 51 5b 3f 2b 63 47 3f
       0.89693004 0.99989814 0.8567094 0.77885693
000090 fa 99 77 3f c4 fc 60 3f 6e 2a 6d 3f eb 8d 64 3f
       0.96719325 0.8788569 0.9264287 0.8927905
0000a0 4f d2 42 3f 09 e2 52 3f 93 17 66 3f 6d 47 82 3f
       0.76102155 0.8237615 0.8987972 1.0178047
0000b0 b6 e7 3d 3f 01 19 61 3f c8 07 59 3f c9 9b 79 3f
       0.7418169 0.8792878 0.847775 0.97503334
0000c0 03 1c 53 3f 3b 1f 46 3f 3d 96 77 3f bd 16 73 3f
       0.8246462 0.77391404 0.9671362 0.9495657
0000d0 91 a9 69 3f 66 c4 60 3f a5 e4 71 3f 55 ef 31 3f
       0.9127436 0.8779968 0.9448951 0.69505817
0000e0 4e 9b 74 3f 65 66 39 3f 5e a3 7d 3f 91 97 57 3f
       0.95549476 0.72421867 0.99077404 0.84215647
0000f0 e2 80 4b 3f 06 e7 80 3f bb fe 67 3f e7 bd 51 3f
       0.79493535 1.0070503 0.9062306 0.81930393

bn3.bias f4 [64]
000000 6f c6 97 bb e5 46 33 bd bb a9 fa 3d 99 3e 24 3d
       -0.0046318094 -0.043768782 0.12239405 0.04009876
000010 dd 2e cf 3d 11 ef 84 bc 39 65 81 bc dc 92 43 3d
       0.1011636 -0.016227277 -0.015795337 0.047747478
000020 19 1e 55 3d 70 63 dd bd e2 42 1e 3d 8b 6a 9f 3b
       0.052030656 -0.10809982 0.038638003 0.004864996
000030 ef a6 22 bd d2 72 a5 bd 0b 94 aa 3c fa 94 24 3d
       -0.03970998 -0.08078541 0.020822546 0.040181138
000040 e5 cd e1 bc ef 06 ba b8 b1 5a 8a 3d 45 ac 5b bd
       -0.027563998 -8.8704626e-05 0.06755579 -0.053631086
000050 9d 67 bf 3d ae f7 f6 3d ed 75 af bd bd 79 f5 bd
       0.093459345 0.1205896 -0.085674144 -0.1198611
000060 07 c5 7f bd a7 8e 76 3d a0 c2 a8 3d 8f ed 50 bc
       -0.06244376 0.060194638 0.08240247 -0.012751951
000070 39 30 25 3d 84 a6 68 bc 91 6e 3e bd 42 6c 0b bd
       0.04032919 -0.014199857 -0.046492163 -0.03403879
000080 da 08 96 3d 42 74 1e 3d e6 71 f2 3d 61 fc d5 bd
       0.07325907 0.03868509 0.11838131 -0.10448528
000090 28 ae 16 be f5 63 d8 3b 11 99 99 3d 13 a9 93 bd
       -0.14714873 0.0066037127 0.07499898 -0.07209983
0000a0 81 ea 30 bd aa 76 7b 3d fd 7b 5a 3d 54 e2 30 3d
       -0.04319239 0.061392464 0.0533409 0.043184593
0000b0 da f1 16 3d 44 2f e6 3d 89 b6 15 bd 62 cd 24 bb
       0.03685174 0.11239484 -0.036551032 -0.0025146832
0000c0 ed 7c 38 bd 20 28 61 3c 37 b2 05 bc 8c 58 21 bc
       -0.045041014 0.013742477 -0.0081601655 -0.009847771
0000d0 ec 02 89 3d d4 87 9d 3d 14 72 1a 3d 73 37 5c bd
       0.066900104 0.07691923 0.03770645 -0.053763818
0000e0 8a f6 d9 3d c8 2a 0c be 5c 70 26 3d 1a b8 a5 bc
       0.10642727 -0.13688195 0.040634498 -0.020229388
0000f0 81 36 4a bd fd fa 31 bd b5 3c 5b 3c 6e 22 dc bd
       -0.049368385 -0.04345225 0.013381173 -0.107487544

bn3.running_mean f4 [64]
000000 81 4c b5 3e af 69 95 be 70 50 87 bd 2a 37 fc be
       0.3540993 -0.29182193 -0.06607139 -0.49260837
000010 74 07 ef be 14 98 6b be f6 03 54 3f 02 96 a6 bd
       -0.46685374 -0.23007232 0.82818544 -0.081340805
000020 23 77 7b bb 27 e2 20 bf a0 3b 39 bd 34 d2 f9 3e
       -0.0038370572 -0.6284508 -0.04522288 0.48793185
000030 f3 1d 06 bf f4 38 5c 3f e9 fb c5 bd 10 04 38 3e
       -0.5238945 0.86024404 -0.09667189 0.179703
000040 94 e7 ed bc 26 50 bb be e6 f3 8b 3c 21 6f 37 bf
       -0.02904109 -0.36584586 0.017084073 -0.71653944
000050 5a a2 8d bf 85 84 cf be 38 ed 07 3f 46 8b ae 3e
       -1.1065171 -0.40530792 0.5309634 0.34090632
000060 bd 86 ab 3e f9 72 39 bf 18 cb 16 bf f8 73 99 be
       0.33501235 -0.7244106 -0.58903646 -0.2997129
000070 31 f9 82 be b0 5f e4 3c f6 a6 c7 3e af 03 09 3f
       -0.25580743 0.027877659 0.3899457 0.53521246
000080 1a 89 8a be 7d 30 d3 be f8 46 51 be 8a 6c 84 bd
       -0.27057725 -0.4124793 -0.20437229 -0.06466015
000090 68 ac b3 be 85 08 94 bf 9a d9 b6 bc 6a 56 95 bd
       -0.35092473 -1.15651 -0.022320557 -0.07291873
0000a0 31 1f a5 3e 80 35 29 be 04 6b 9f be 58 25 49 bf
       0.3225036 -0.16524315 -0.31136334 -0.7857261
0000b0 83 6d 5f be 19 fd 02 bf 3d ef 87 3e d5 97 7b be
       -0.21819119 -0.51167446 0.26549712 -0.24569638
0000c0 24 a6 d6 be b1 96 9a 3c 5e 3d 61 bf d4 6b 86 3d
       -0.4192363 0.018870683 -0.87984264 0.06563535
0000d0 3d b6 2d bf f1 b0 1b be ff b8 03 bf 64 65 9e 3e
       -0.678562 -0.15204217 -0.51454157 0.3093673
0000e0 a2 2d 85 be e5 1f 52 3e dd 85 1b 3e 99 da 7c be
       -0.26011378 0.2051998 0.15187784 -0.24692763
0000f0 59 f4 18 3f 71 04 04 bf 43 b2 b1 be 87 b0 2a 3f
       0.59747845 -0.5156928 -0.34706315 0.6667561

bn3.running_var f4 [64]
000000 da 6d f9 3e e2 74 38 3e 81 b3 f8 3d aa 14 e3 3e
       0.48716623 0.18013337 0.12143613 0.44351703
000010 8d fb c0 3e a4 72 47 3e 30 38 01 3f c7 c7 4e 3e
       0.37691918 0.19477326 0.5047636 0.20193397
000020 f3 38 b7 3e 13 fd 82 3e 97 72 2b 3e 90 e9 40 3e
       0.35785636 0.25583705 0.16742931 0.18839097
000030 01 b2 f4 3e eb 08 39 3f 19 b1 95 3e 59 b6 28 3e
       0.47792056 0.7227923 0.29236677 0.1647581
000040 4d 86 f8 3d df 75 24 3e 5b 8a 03 3e 4b 5a 1b 3e
       0.12134991 0.16060589 0.12845747 0.15171163
000050 3c 2c 2d 3e a3 59 40 3e 4f 9f 8e 3e 11 c7 84 3e
       0.16911405 0.18784194 0.27855918 0.25933126
000060 f9 1a 66 3e 58 8a 37 3e c0 85 1c 3e 2a 03 27 3e
       0.22471227 0.17923868 0.15285397 0.163098
000070 ee a3 34 3e 37 fc 38 3e f1 c5 88 3e 42 ca 23 3f
       0.17640659 0.18064962 0.26713517 0.63980496
000080 42 ea 2e 3e 40 5d 73 3e ec 3d 37 3e 77 bc 96 3e
       0.1708155 0.23766041 0.17894715 0.29440662
000090 30 fc e9 3e 9c 00 90 3e fb 8c 60 3e 0f f0 25 3e
       0.45700216 0.28125465 0.2192878 0.16204856
0000a0 df 85 95 3e 01 19 c9 3e e9 f0 82 3e c4 79 8a 3e
       0.29203698 0.3927689 0.25574425 0.27046025
0000b0 ae 4f e2 3d 03 88 6b 3e 0d 00 57 3e b3 f7 87 3e
       0.11050354 0.23001103 0.20996113 0.26556167
0000c0 a0 f3 7d 3e 14 fb fc 3d c6 14 b9 3e 01 9b b0 3e
       0.24799967 0.12352577 0.3614866 0.3449326
0000d0 7d 95 49 3e a0 73 d1 3e 25 ed 57 3e f4 5f 45 3e
       0.19685932 0.40908527 0.21086557 0.19274884
0000e0 44 be 62 3e 86 e1 b8 3e fd 62 02 3e c7 48 28 3e
       0.22142893 0.3610956 0.12733074 0.16434012
0000f0 f0 61 20 3f cc 5d 24 3e 3f f1 56 3e 81 3c c2 3e
       0.6264944 0.16051406 0.20990466 0.37936786

conv4.weight f4 [64, 64, 3]
000000 cd d1 60 bc 8b 87 0a 3d 65 62 e4 bc 58 9f 91 3c
       -0.013721895 0.03382067 -0.02787895 0.017776176
000010 e8 3c a5 bc d7 7f 28 3d 69 55 25 bd 65 75 20 3d
       -0.020170644 0.041137543 -0.040364657 0.039174456
000020 57 6c 72 3d bc b4 40 3d 8d ba 55 3d 68 81 18 3d
       0.059185352 0.04704736 0.05217986 0.037232786
000030 5b 38 a9 bd 55 2e 20 be dd e3 77 bd 4d eb 9f bc
       -0.08262702 -0.15642674 -0.06052004 -0.01952138
000040 43 17 52 3d 54 31 43 3d eb 2e 36 3d 60 b1 1d bc
       0.051291715 0.047654465 0.04447834 -0.009624809
000050 ec 3b 8b bd be 07 90 bd 9e c0 b1 bd 5c 0c 8c 3d
       -0.067985386 -0.07032727 -0.08679317 0.06838295
000060 f2 cf e6 bd 1d df cc bc 7f 8e e8 3c 88 78 6c 3d
       -0.11270131 -0.025008732 0.02838826 0.057732135
000070 b0 95 3f 3d 41 ea 01 bc 88 17 89 3d fc 47 3b bc
       0.046773612 -0.007929386 0.06693941 -0.011430737
000080 77 25 38 bc 41 29 a9 bd 2f 10 25 3c d6 db 50 3d
       -0.011239401 -0.08259822 0.010074659 0.050990902
000090 26 6a b3 3b 72 37 32 bd 5e 41 85 bd b5 19 6d 3d
       0.0054753004 -0.043509908 -0.065066084 0.057885844
0000a0 62 29 ba 3c 78 65 a2 3d 51 1d 82 3d 99 ce 30 3c
       0.022724811 0.0792951 0.06353248 0.010791444
0000b0 28 ba f2 bd 6c b3 55 3d 91 82 27 3d fc 50 1e 3d
       -0.11851913 0.052173063 0.040896002 0.03865145
0000c0 7f d5 5f bd eb ec a7 3b f1 e3 69 3a 47 8a 65 bd
       -0.054646965 0.0051246784 0.00089222105 -0.056040075
0000d0 4f 5c fd 3d d8 35 b4 bd 4e f9 85 3d 2f cf 5b bd
       0.12371122 -0.087993324 0.06541692 -0.053664383
0000e0 11 fd db bc b4 1d 71 bd de 02 d6 bc 77 36 09 3d
       -0.02685407 -0.058866218 -0.026124414 0.033499207
0000f0 3f 53 f0 bc bb 92 c2 3c 18 8d 08 bd 77 9f b0 3d
       -0.02933657 0.023751607 -0.033337682 0.086241655
000100 6a 03 f3 bc 62 e7 81 3d d4 c5 0f bd 3c 40 5c bd
       -0.029664714 0.06342961 -0.035100773 -0.053772196
000110 c1 d1 74 bd a7 ce 77 bc 89 6e a6 bd 02 a6 ac 3d
       -0.05977035 -0.015124953 -0.08126552 0.08430101
000120 b7 ba 44 3d 0a 2c cf bd c1 3e 88 bd f5 42 6e 3c
       0.048029628 -0.10115822 -0.06652594 0.014542331
000130 84 91 24 3e 50 9a fd bc 58 6e 1e bb e9 54 ed 3c
       0.16071135 -0.030957371 -0.0024174657 0.028971152
000140 51 b5 28 3d d0 43 46 bd 59 0d a2 3c 1c df 97 3c
       0.04118854 -0.048404515 0.019781755 0.018539004
000150 01 e6 d1 3d fd 88 61 bd e0 91 8a 3d 6a e4 b3 3b
       0.10248948 -0.055062283 0.06766105 0.0054898756
000160 7a 4a 2c 3d c8 91 5f bc 3e 4c 22 bc 1f 13 44 3d
       0.042063214 -0.013645597 -0.009905873 0.047869798
000170 ee 29 3a b8 49 19 1c 3d 90 6c 6c 3d 0b 9f 3f bd
       -4.4384906e-05 0.03811005 0.05772072 -0.046782535
000180 f8 5a 95 3c e2 5b ba bd d5 4a 48 bc 9f 0d ec 3d
       0.018231854 -0.090995565 -0.012224873 0.115260355
000190 b4 91 aa 3b 52 b0 12 bd d9 2c f1 3c de 76 93 3c
       0.0052053574 -0.035812683 0.02944033 0.018001016
0001a0 f8 9a b6 bc 84 1c 1b 3d bc d3 29 bd b9 68 a7 3c
       -0.022290692 0.03786899 -0.04146169 0.020435678
0001b0 56 f6 9d bd 87 73 04 be a8 76 b8 ba 54 41 cd bd
       -0.077130005 -0.12934695 -0.0014073448 -0.10022226
0001c0 cc b6 d5 bc b4 6a 85 3d af ff 86 3d 9f 6b 84 bd
       -0.02608814 0.06514493 0.065917365 -0.064658396
0001d0 f1 96 9c bc 02 bd 13 3b 5a 1b cb bd 9d 69 77 3b
       -0.019114943 0.0022543077 -0.09917326 0.003775216
0001e0 28 6b 4b bd 4f 05 87 bd 42 22 a9 bc f8 b1 00 3d
       -0.04966274 -0.065928094 -0.020646218 0.031419724
0001f0 5e 75 06 3e 81 79 2d 3d 9f e1 50 bd 59 b7 a2 bd
       0.1313071 0.042352203 -0.05099642 -0.07945127
000200 2e 95 57 3d de e8 ee 3d b6 bc 08 3c f1 f5 54 3d
       0.052632503 0.1166551 0.008345773 0.05199236
000210 08 c2 46 bc 03 40 26 3c b5 5c 24 bd 05 d6 03 3d
       -0.012131222 0.0101470975 -0.040127475 0.032186527
000220 d8 3b b6 bd 48 b5 df bc 1a eb 34 bd b1 0e 5c 3c
       -0.08898133 -0.027308121 -0.044169523 0.013431237
000230 4a 95 40 3c be 5e a4 3b 0e c1 3f bd c0 97 8f 3c
       0.011754343 0.005016177 -0.04681497 0.017528415
000240 f3 b2 0f bd 50 f7 20 bb 75 58 5f bd d1 f2 df 3a
       -0.03508277 -0.0024561472 -0.05452772 0.0017085915
000250 69 d2 88 bc c6 f3 a8 bc 49 9d df bd 8c 1e e5 bb
       -0.016701894 -0.020624053 -0.10918672 -0.006992167
000260 02 71 1b bd 9e 14 55 bd 7f d5 95 bc 1e 39 89 3d
       -0.03794957 -0.052021615 -0.01829028 0.06700347
000270 e7 16 9a 3c 7f 6b 92 bd 49 7f 5e 3c fa fb 2a 3e
       0.018809749 -0.071494095 0.013580152 0.16697684
000280 8b cf b9 3d 94 00 8a 3d e4 ab 36 3d a2 d0 fb 3b
       0.09072789 0.067383915 0.04459752 0.007684783
000290 5e 35 e1 3d 68 93 cd 3c 42 07 a9 3c f5 3d ea bc
       0.10996507 0.025094703 0.020633344 -0.028593997
0002a0 d7 f8 c9 bb 60 60 71 3d 78 24 1d be ba a0 5b bd
       -0.006163697 0.0589298 -0.15345943 -0.053620078
0002b0 66 88 d9 bc 5f b7 f4 bc 14 73 91 3c 04 ff e5 3d
       -0.026554298 -0.029872594 0.017755069 0.11230281
0002c0 95 1d a5 bd d2 5d 9a bd b0 1a 5d bc 1c 89 3d 3c
       -0.08062283 -0.07537426 -0.013495132 0.011568334
0002d0 bb bc d2 bb a3 9a 36 3b 78 48 92 3d e7 5e 97 3c
       -0.00643119 0.0027863167 0.071427286 0.01847787
0002e0 42 5f e2 3d c0 9c 98 bd e0 4d 07 be b6 38 9d 3d
       0.11053325 -0.07451773 -0.132133 0.076768324
0002f0 46 9e 6f 3d bc 2d 89 bc 68 68 36 bd 4a ab 68 3d
       0.05850055 -0.01674544 -0.044533163 0.05680398
000300 c5 5e 44 3d e0 85 b9 3d 02 f1 b8 3b 1d ad 4e 3d
       0.04794194 0.09058738 0.0056439647 0.050458062
000310 79 f1 0d 3d f4 db 95 3b 76 fa af 3c 9c 71 8b 3d
       0.034654114 0.0045733396 0.021481734 0.06808779
000320 65 e3 b2 bc 34 ab c7 bd 97 0e 07 3d 16 8d 8d bd
       -0.021836946 -0.09749451 0.0329729 -0.06911676
000330 e0 ba 1c 3d 91 2e 30 3d 3b d4 0d be 85 ad 48 3d
       0.038264155 0.04301316 -0.13850491 0.048993606
000340 39 05 99 3c 46 45 7a 3c 6d b7 dd bc 75 3d 0f bc
       0.018679248 0.015275305 -0.027065003 -0.00874268
000350 4b ff 9b bc 4b 4d 7c 3c 1c 7e 5f 3d 0c bf 94 3b
       -0.019042632 0.015399287 0.054563627 0.004539376
000360 ee 5e 93 3c b2 2b 09 3e 69 63 95 bd 09 e6 c5 bb
       0.017989602 0.13395575 -0.072943516 -0.006039385
000370 65 59 ec 3b f3 fc 1a bd 0d c6 db 3c 5a 6c 2c bd
       0.007212805 -0.037838887 0.026827836 -0.04209552
000380 d9 f5 d3 3b 63 72 4d bd 90 8a 1e bd c3 67 9b 3d
       0.0064685163 -0.050157916 -0.038706362 0.0758815
000390 2e 3f 57 bc ae ab c3 3d f9 81 c9 bd 35 92 23 3d
       -0.013137622 0.0955423 -0.098392434 0.039934356
0003a0 ee 18 33 bd 12 f6 3e 3c 44 7d c9 3c 57 55 37 3d
       -0.043724947 0.011655347 0.024595864 0.04475912
0003b0 ad 83 3a 3d 58 12 1b 3c 55 c0 39 bd 21 7a df bc
       0.045535732 0.009464823 -0.045349438 -0.027279915
0003c0 a7 7d 94 bd 23 7a 94 bc aa 41 99 3b 37 cd 08 bd
       -0.07250529 -0.018124646 0.004677017 -0.033398833
0003d0 ea c1 84 38 c2 6a 9a bc 41 00 55 bc a3 4d 09 3c
       6.33037e-05 -0.018849734 -0.013000549 0.008380326
0003e0 04 07 88 bd e6 8c 8e 3c 51 2b 63 bd 61 9d dd 3c
       -0.06641963 0.01740117 -0.05546123 0.027052583
0003f0 21 a9 96 3d c6 3a 29 bd 10 f0 63 3c 0a 81 24 3d
       0.073564775 -0.041315816 0.013912216 0.040162124

conv4.bias f4 [64]
000000 9e a0 2c 33 93 3b e0 33 d9 82 16 33 e6 c9 a5 32
       4.019295e-08 1.0441649e-07 3.5043602e-08 1.930034e-08
000010 82 08 8b b4 24 7c d0 b4 d3 3a 16 b5 aa 9a f8 b3
       -2.5896958e-07 -3.8833343e-07 -5.5964955e-07 -1.1576533e-07
000020 9f 6c e9 b4 ef 17 98 b4 1d f2 1a b3 83 7a 06 b3
       -4.3478664e-07 -2.832962e-07 -3.607612e-08 -3.131073e-08
000030 62 e9 ff 34 08 85 c1 33 a7 ba 70 33 ae 22 c8 b4
       4.766726e-07 9.011461e-08 5.6049114e-08 -3.7278136e-07
000040 aa 02 22 34 ca b6 83 33 16 70 14 b4 10 41 ab 33
       1.5088395e-07 6.133412e-08 -1.3824351e-07 7.974643e-08
000050 ef 2a 33 b4 90 af 78 b4 6d 93 b4 b4 ae 0b 85 b1
       -1.6686293e-07 -2.3160669e-07 -3.363488e-07 -3.8721373e-09
000060 02 8c 33 34 dd 1d db 33 46 2a 6b b4 39 18 25 34
       1.6721609e-07 1.0203414e-07 -2.190146e-07 1.5375635e-07
000070 82 fa 55 35 53 05 94 34 0a 84 2d 34 2d e9 24 b4
       7.971322e-07 2.7571022e-07 1.6159916e-07 -1.5358519e-07
000080 5f 0e aa 32 0c 0a 4e 34 c1 11 90 b3 77 6a ba 33
       1.979714e-08 1.91889e-07 -6.708752e-08 8.680666e-08
000090 fc 3c 76 33 12 38 ad 34 97 e3 26 b4 0f 9b 93 34
       5.7331803e-08 3.2264558e-07 -1.5542751e-07 2.7493704e-07
0000a0 bd 45 89 b3 be 05 ce b3 c4 5d 1e 34 51 5f c9 b3
       -6.392245e-08 -9.593667e-08 1.4749008e-07 -9.37713e-08
0000b0 5b 06 79 b3 e0 d1 ce 33 0e 95 18 b4 4c 60 45 34
       -5.798061e-08 9.6307986e-08 -1.4210329e-07 1.8382087e-07
0000c0 d9 2b ea b3 83 41 66 b4 a3 55 24 b4 7e ba 6c 35
       -1.090445e-07 -2.1444252e-07 -1.5304845e-07 8.8188233e-07
0000d0 40 62 0f 33 37 d4 36 34 4b dc d8 33 c2 6e 98 b3
       3.338414e-08 1.7027274e-07 1.0098355e-07 -7.098198e-08
0000e0 b7 0a 45 b4 cd 4c 20 b5 9b 71 8e 34 2f cb c1 34
       -1.8350953e-07 -5.9716405e-07 2.653222e-07 3.6096887e-07
0000f0 e2 9d 39 34 2f ec dc b3 73 3f c1 31 c4 11 25 b4
       1.7286905e-07 -1.028751e-07 5.6242526e-09 -1.5373286e-07

bn4.weight f4 [64]
000000 12 34 8d 3f 47 c6 84 3f 11 e0 40 3f 7d c1 7d 3f
       1.1031516 1.037301 0.753419 0.99123365
000010 fa 67 3d 3f 32 c6 4b 3f 52 b9 7f 3f d0 e4 6a 3f
       0.7398678 0.795993 0.9989215 0.9175539
000020 0d b0 90 3f 92 5f 81 3f 39 bf 88 3f cd bc 5a 3f
       1.1303726 1.0107291 1.0683357 0.8544434
000030 23 1d 89 3f a2 54 62 3f f7 c7 80 3f 14 55 52 3f
       1.0712017 0.8841039 1.0061024 0.8216107
000040 bb 4d 83 3f b3 e3 5c 3f d7 74 4c 3f a4 0d 4a 3f
       1.0258096 0.8628494 0.79865783 0.78927064
000050 fe 38 65 3f c9 f6 80 3f a1 e2 86 3f 40 40 83 3f
       0.8954009 1.0075313 1.0537912 1.0253983
000060 29 f2 86 3f df 6e 84 3f cd 63 88 3f 99 42 88 3f
       1.0542651 1.0346335 1.0655457 1.0645324
000070 7d f4 83 3f 5c bd 77 3f de ba 7f 3f 7b ff 73 3f
       1.0308987 0.96773314 0.9989451 0.9531171
000080 13 fa 7a 3f ef 7a 7e 3f 53 d3 6c 3f 35 4c 45 3f
       0.9803783 0.9940633 0.92509955 0.7706941
000090 8f 94 40 3f c2 13 8d 3f 65 18 7d 3f b8 7a 5e 3f
       0.7522668 1.1021655 0.9886535 0.86906004
0000a0 75 69 79 3f 0e dc 8a 3f 64 43 86 3f a8 b0 7e 3f
       0.9742654 1.0848405 1.0489316 0.99488306
0000b0 a5 97 8c 3f 14 d1 81 3f 4c d1 79 3f 0e f0 85 3f
       1.0983778 1.014193 0.97584987 1.0463884
0000c0 c4 27 57 3f 3d 9e 83 3f 94 87 7c 3f 9c bd 7f 3f
       0.8404505 1.0282665 0.98644376 0.99898696
0000d0 0f 17 82 3f 7a 44 6e 3f 26 44 8a 3f 9b 0e 84 3f
       1.0163287 0.93073237 1.0802047 1.0316957
0000e0 57 21 85 3f 86 84 95 3f 8a 4f 88 3f a5 41 6e 3f
       1.04008 1.1681068 1.0649273 0.93068916
0000f0 d5 f1 82 3f ef e5 7f 3f 16 86 6e 3f 35 ea 84 3f
       1.0230051 0.99960226 0.9317335 1.0383974
