greatarc/greatarc_cnn.pt (torch, 109579 bytes, 26 tensors)

conv1.weight f4 [32, 1, 80]
000000 70 b6 bb bb d7 d9 9c 3d c1 cb 66 bd 2c 10 3a bd
       -0.0057285354 0.07658737 -0.05634666 -0.04542558
000010 fe b3 a4 3a 30 6d bb 3c 96 cc 46 bc c4 eb c0 3d
       0.0012565849 0.022879213 -0.012133738 0.09419969
000020 83 02 0b 3b b1 a7 46 3d 10 eb 2b bd 78 40 71 39
       0.0021211214 0.048499767 -0.04197222 0.00023007568
000030 8d d8 a9 bd 28 dd ba bd e3 93 8c bd 5f f3 2a 3c
       -0.08293257 -0.091242135 -0.06864145 0.010434001
000040 8c b8 8f 3d c3 1e 98 3d 56 eb 93 bd f4 7f 4f bd
       0.070176214 0.07427742 -0.07222621 -0.050659135
000050 d8 d7 86 3d 05 2d d3 3d d1 1f 57 bd a8 a7 79 3d
       0.06584138 0.10311321 -0.052520577 0.060950905
000060 d6 bb 3d bc 42 d8 14 3c f8 06 ab 3d 67 27 de bd
       -0.011580428 0.009084763 0.083509386 -0.10847359
000070 26 05 d2 bd 76 0b 30 bd 89 26 6e bd 9d c8 bc 3d
       -0.10254888 -0.04297968 -0.05814222 0.092179514
000080 98 8b c7 bd 37 23 42 bd 3a cd a1 bd 04 20 e2 bd
       -0.09743422 -0.047396865 -0.07900472 -0.11041263
000090 c7 27 6e bd c7 e1 c2 3d fb a7 8a 3d 80 55 89 3d
       -0.058143403 0.0951572 0.06770321 0.06705761
0000a0 3b 60 7d bc ba 41 83 bd 84 a3 26 3c 4a 4e b7 bd
       -0.015464838 -0.06409021 0.010170821 -0.08950479
0000b0 d2 77 82 bd 45 0c 72 bd 47 5d c2 3d ae b1 71 3d
       -0.0637051 -0.059093732 0.094904475 0.05900734
0000c0 95 ef 7c bd 9f 19 f9 3c 14 4e d4 3d 61 c9 c1 3d
       -0.06175192 0.030407725 0.10366455 0.09462238
0000d0 20 c7 8f 3d 60 62 22 38 cf f5 9f 3d c8 8e 8a bd
       0.07020402 3.871543e-05 0.07810556 -0.067655146
0000e0 83 3d 75 3c 55 1f 64 bd d9 5a 9f bd 0c 9c 97 bd
       0.014968279 -0.055693943 -0.07781 -0.074028105
0000f0 c5 d9 6b 3d 28 9d 98 3d e5 6d a7 bd d4 c5 0c 3c
       0.057580728 0.0745185 -0.081752576 0.008592088
000100 84 f7 32 3d 61 2c db bc a4 f1 34 bb 50 0a a7 3c
       0.04369308 -0.02675456 -0.002760985 0.02039066
000110 b2 4f 85 3d 5e 97 0d 3e ce d0 cf bd 1d 36 4b bd
       0.06509341 0.13827273 -0.10147248 -0.049612153
000120 fb f0 6e 3d 71 06 d1 3d f0 ac b3 3d a6 98 d6 3d
       0.058335286 0.10206307 0.087732196 0.10478334
000130 54 3d f4 3c 91 98 bb bd bf 4e 1d 3b 18 6b 66 bd
       0.0298144 -0.09159959 0.0024003235 -0.056254476
000140 6c 34 b3 bd b9 d3 e0 3d 7e fd dd 3d f9 cb c7 bd
       -0.08750233 0.10977883 0.108393654 -0.097557016
000150 04 ec 87 bb ed 5d 62 bc d9 90 1c bd 73 c0 65 bd
       -0.0041480083 -0.013816339 -0.038224075 -0.056091737
000160 65 aa 1f 3d 62 9e 9b bd 5f 68 45 3d aa 2d 6f 3d
       0.03898086 -0.075985685 0.04819524 0.058393158
000170 c7 af 82 3d 6a d8 16 3d c2 27 0c be db 19 d2 bd
       0.06381183 0.036827482 -0.13687041 -0.10258838
000180 97 43 6d 3d 1b f0 8a 3c a0 6f e7 bd 9b b4 aa bd
       0.057925787 0.016960194 -0.11300588 -0.08335229
000190 a3 3d d9 3d d2 f2 87 3d e1 a8 85 bd 06 cd 17 bd
       0.106074594 0.06638111 -0.06526352 -0.03706076
0001a0 27 bd c8 bd 7c 7c 8d bc 4a 8c 9b bd e2 ab e8 bd
       -0.09801703 -0.017271273 -0.075951174 -0.11360909
0001b0 13 8d 5e 3b 51 4d 2a 3d 15 dd e2 bc 42 3a a2 3d
       0.0033958599 0.04157764 -0.02769331 0.07921268
0001c0 0f 2b 8e bd 60 27 01 3e 54 be bb 3d 1d 4b b2 bd
       -0.069418065 0.12612677 0.091671616 -0.08705733
0001d0 36 df b8 bb 63 06 55 3c ef a6 87 3a 87 97 91 3c
       -0.005641843 0.013002011 0.0010349433 0.01777245
0001e0 fb c7 a3 3d 83 c5 dd 3c 4f 94 23 bd 2a c6 5d 3d
       0.079971276 0.02707172 -0.03993636 0.054144062
0001f0 9e 71 ce bd d0 9d 4d bd 60 38 98 bb c9 30 3c bd
       -0.100802645 -0.05019933 -0.0046453923 -0.045944963
000200 74 bf 55 bd 36 46 94 bd d8 67 8b 3c ad a4 1d 3d
       -0.052184537 -0.07239954 0.01701729 0.038487125
000210 bc 8e 54 bd 5f eb 49 3c 95 30 c0 3d 67 42 64 bc
       -0.051893935 0.012324183 0.09384266 -0.013931847
000220 3a de 84 3b 96 bf 98 bc c7 f3 e2 3c e2 37 ae 3d
       0.004054812 -0.018646043 0.027704133 0.085067526
000230 4b 3a c3 3d 5e c3 98 3d 6c 1a e4 3d 93 5c 8c 3c
       0.09532603 0.07459138 0.11137852 0.017133987
000240 e6 1e c5 bd 8e f6 6e bd d2 b8 96 3d 3b be f6 bc
       -0.09625034 -0.0583406 0.073594704 -0.030120006
000250 e2 ae 3a bd cd 75 c8 bd 4f 31 f2 bd 3a 18 c2 bd
       -0.045576937 -0.09788094 -0.11825811 -0.09477277
000260 f0 91 df bc 84 6e 64 3d 6e 54 9b 3d 69 22 df bd
       -0.027291268 0.05576946 0.07584463 -0.10895235
000270 68 41 a6 3d 70 58 6b bd 98 a5 25 bc 58 8c 16 bd
       0.08117944 -0.057457387 -0.010110281 -0.036754936
000280 9b cd 12 bc da 2e 05 bd 8f 90 b8 bd 59 8f 9f bd
       -0.008960153 -0.032515384 -0.09011947 -0.07791013
000290 04 e4 c1 bc 3e 1d 10 3c e6 cd 48 bd a1 54 48 3d
       -0.023668297 0.008796034 -0.049024485 0.048908833
0002a0 80 aa e7 bd 3f d8 33 bc 05 5c cc 3d 40 5e 1e bd
       -0.11311817 -0.01097685 0.09978489 -0.038664103
0002b0 30 03 ff 3d 80 e1 e8 3c c5 05 bf bd 38 b5 cb 3d
       0.1245178 0.02842784 -0.09327272 0.09946674
0002c0 bc d3 1e bd 9f 88 23 bd 54 e8 9b 3d 82 a9 f7 bd
       -0.038776144 -0.039925214 0.076126724 -0.12092878
0002d0 81 42 41 3c b4 cb 37 bd 3e 03 a9 3d 64 2c 50 bb
       0.011795641 -0.044872 0.082525715 -0.003176474
0002e0 7c 1e 5b 3d 6d 02 36 3d 39 1f 37 bd a9 52 5f ba
       0.05349587 0.044435907 -0.04470751 -0.0008519092
0002f0 53 95 bf bd 36 41 88 3d a0 a0 c9 3d 75 e3 9e 3d
       -0.09354653 0.06653063 0.0984509 0.07758228
000300 04 42 b5 bd ef e5 bf 3c 4a 99 8f bd b0 3b 58 bd
       -0.08850482 0.02342507 -0.070116594 -0.052791297
000310 77 de 99 bd e0 e4 a7 3c e4 33 87 bd 05 fe c8 3b
       -0.07513135 0.020494878 -0.06601694 0.006133797
000320 bd 97 83 3c 29 8d b7 3d 36 4a c6 bd 59 de 4c bd
       0.016063565 0.08962471 -0.09682123 -0.050016735
000330 61 01 5d bd 88 f4 b9 3d 10 d6 c0 bc f0 78 f0 3d
       -0.053956393 0.09079844 -0.023539573 0.11741817
000340 25 fa 56 3d 20 30 a6 3d 6c 34 df bb e8 9b 63 bc
       0.05248465 0.08114648 -0.006811669 -0.013892151
000350 90 6f 90 3d 4b 38 0b bc 5f f5 ce 3c 4a 8b a7 3c
       0.07052529 -0.008497308 0.025263486 0.02045216
000360 7e 8e 74 bd b3 f6 5a bd a3 28 91 3d e5 ce ab bd
       -0.059706204 -0.053457927 0.07087829 -0.083890714
000370 a6 93 85 3c 29 1f 02 3e 23 b0 60 3d 97 30 bd 3b
       0.016305756 0.12707199 0.054855477 0.0057736146
000380 9a 96 cc bd f9 33 8e 3d d3 b5 da bd 56 20 c4 bc
       -0.099896625 0.06943507 -0.106792115 -0.0239412
000390 8f 15 85 bc b7 5b 26 bb 92 8c 37 ba 1e 12 e0 3d
       -0.016245632 -0.0025384256 -0.00070018426 0.109409556
0003a0 78 e4 7c 3a 70 6a 96 3d 5a 97 a1 3d 4f 64 d1 bd
       0.00096470816 0.0734452 0.07890196 -0.102242105
0003b0 9b ef 20 3d 2d 94 bb bd 23 30 9e bd e7 1f 9e 3c
       0.039291006 -0.09159122 -0.07724025 0.019302322
0003c0 9d bd 8c 3d 03 7e c0 3d 83 3b 77 bb 1b b6 e5 3b
       0.06872103 0.09399035 -0.003772468 0.007010234
0003d0 48 c3 c1 3d 4f 2e c7 bd 6c 47 fb 3d 7c 61 de bd
       0.09461075 -0.097256295 0.12269482 -0.108584374
0003e0 3e a9 64 3a 36 90 6a bc 6e 24 87 bd 26 22 f9 3a
       0.0008722729 -0.014316609 -0.06598745 0.0019007369
0003f0 13 7c b8 3d 7f 81 de bc 03 42 50 bd 03 28 81 bc
       0.0900804 -0.027161358 -0.050844204 -0.01576615

conv1.bias f4 [32]
000000 7f e7 84 3c 35 60 95 bb aa 36 87 3c 98 06 76 bc
       0.016223667 -0.004558588 0.016505558 -0.0150162205
000010 a5 07 b7 bb b9 8d 49 3b d0 71 3f bc 4c 23 92 bc
       -0.005585628 0.003075464 -0.01168485 -0.017839096
000020 c7 f0 3d 3c 58 df 9e 3b 06 90 c0 b9 3c d3 44 bc
       0.01159305 0.004848402 -0.000367284 -0.012013253
000030 35 d4 ea 3b 09 9c 83 3b 04 a9 15 bc 92 3a 62 bb
       0.0071664103 0.0040164036 -0.009134535 -0.0034519774
000040 f7 d9 87 bb 4d a3 1c bb ca 3b 74 3c bc 3a c0 bb
       -0.0041458565 -0.0023901046 0.014906833 -0.0058663767
000050 fd 62 10 bc a2 45 87 bb 5f ee 1d 3c 7e a3 19 3c
       -0.008812663 -0.004128174 0.009639352 0.0093773585
000060 5e e2 8f 3a 36 1c 59 3c 32 b1 da 3b 9e 1a 2e 3a
       0.0010977497 0.013251355 0.0066739554 0.00066415395
000070 7f 10 1b bc 56 aa a4 ba 2d bd c9 3c 8d 0d 4e 3c
       -0.009464382 -0.0012562971 0.024626339 0.012576473

bn1.weight f4 [32]
000000 34 87 7a 3f 68 a8 7e 3f f8 9c 80 3f 28 35 82 3f
       0.97862554 0.9947572 1.0047903 1.0172472
000010 5b c0 80 3f 1b 60 81 3f c1 e7 79 3f e5 35 81 3f
       1.0058702 1.0107454 0.97619253 1.0094572
000020 89 1e 81 3f 28 c4 80 3f 86 05 83 3f 85 b5 7c 3f
       1.0087444 1.0059862 1.0236061 0.98714477
000030 07 d1 80 3f 0d da 80 3f 36 cd 78 3f 7e 82 82 3f
       1.006379 1.0066544 0.9718813 1.0196073
000040 93 cc 7e 3f 64 ff 75 3f 15 67 7c 3f f5 df 7c 3f
       0.99530905 0.9609282 0.9859479 0.9877923
000050 93 8e 80 3f 58 3e 7e 3f 3b 41 82 3f d0 dc 7b 3f
       1.004351 0.9931388 1.0176157 0.9838381
000060 15 a1 7e 3f 30 e9 77 3f bc 13 80 3f bd f0 7b 3f
       0.9946454 0.9684019 1.0006022 0.9841421
000070 c7 06 7b 3f 44 dc 82 3f 8a 1f 83 3f 6c 11 7d 3f
       0.98057216 1.022347 1.0244 0.9885471

bn1.bias f4 [32]
000000 02 c1 0d bc f9 d4 8a 3d 4b 66 12 3d 24 2d a0 3c
       -0.008651974 0.067789026 0.035742085 0.019552775
000010 57 9a 8c 3d 07 2f 80 3d fe c8 1a 3c 74 42 1e 3d
       0.068653755 0.0625897 0.009447334 0.038637593
000020 fb 67 cb 3c 24 ca 21 3d 54 55 66 3d ed ae 4b 3c
       0.024829855 0.039499417 0.05623372 0.012431842
000030 3e 0e 00 3d eb ca ae 3b 12 2e ac 3c 75 25 07 3d
       0.031263582 0.0053342483 0.021018062 0.032994706
000040 0b 61 b0 3d 62 22 78 ba 41 8d fe 3c 86 94 9f ba
       0.086122595 -0.00094655727 0.031073214 -0.0012175001
000050 4c 4c 2c 3d e7 09 26 bc 17 7c 0a 3e 80 9a 52 3d
       0.04206495 -0.010134197 0.13523899 0.051416874
000060 d1 a3 b7 3c d1 ea 1b 3d 36 c2 f0 3c ac e7 ef 3d
       0.022416981 0.038065735 0.029389482 0.1171411
000070 49 51 98 bc 5e 5d 20 3d c0 a5 fc 3c 39 13 ff bc
       -0.018593447 0.039151542 0.030840755 -0.031137096

bn1.running_mean f4 [32]
000000 60 94 83 3c d8 4c 8c bb f0 6e 6c 3c 21 8a 4b bc
       0.016061962 -0.0042816214 0.014430746 -0.012423069
000010 a7 a1 c0 bb 4d 59 5d 3b 61 19 2a bc 3e 7a 77 bc
       -0.0058786455 0.0033775151 -0.010382027 -0.015104828
000020 10 16 44 3c 76 a8 b5 3b 95 ac 1f ba 10 cb 16 bc
       0.011968151 0.0055437637 -0.00060910854 -0.009203687
000030 e9 24 dc 3b ef 44 91 3b 37 ad 10 bc 34 24 39 bb
       0.006718267 0.0044332664 -0.00883036 -0.0028250339
000040 05 94 87 ba 1b 3d f9 ba 7c 37 10 3c b9 33 bc bb
       -0.0010343796 -0.0019015403 0.008802291 -0.0057434705
000050 8c 48 18 bc fa d5 27 bb e8 c0 c8 3b e3 ac 22 3c
       -0.00929464 -0.0025609718 0.006126512 0.009928915
000060 31 bb 84 3a fd 5c 65 3c 0c 3b c0 3b 62 f3 8b 3a
       0.0010126588 0.013999221 0.005866414 0.0010677392
000070 c6 a1 5e bb cb ab 2b ba ae bb a8 3c f9 f0 4f 3c
       -0.0033970936 -0.00065487315 0.020597305 0.01269173

bn1.running_var f4 [32]
000000 9a c0 92 3b 6e 52 92 3b 28 7f 2c 3b e2 b3 3b 3b
       0.0044785263 0.004465393 0.0026320908 0.0028641154
000010 71 f4 2a 3c 04 3f 74 3b 8f 57 a3 3b c4 66 2e 3b
       0.010434256 0.0037269006 0.004984803 0.0026611546
000020 52 e1 10 3b 01 d9 ab 3b be 99 36 3b bb 22 18 3c
       0.0022106958 0.0052443747 0.0027862634 0.009285624
000030 f6 54 a6 3b 90 40 0e 3c 67 c0 4f 3c f6 df c4 3b
       0.005076046 0.008682385 0.01268015 0.0060081435
000040 05 95 dd 3b 45 a6 39 3c 05 ce 68 3c c6 50 c1 3b
       0.0067621493 0.011331146 0.014209275 0.0058995215
000050 c4 73 4b 3b 88 06 45 3b 08 4a 6d 3b 56 09 2b 3c
       0.0031044343 0.0030063707 0.0036207456 0.010439238
000060 b3 83 41 3b 53 56 60 3b 1f f5 d0 3b ad 45 8f 3b
       0.0029527962 0.003423114 0.006376877 0.0043723197
000070 2b 16 24 3b d9 7a 07 3b 24 fc a3 3b 38 0a 51 3c
       0.0025037627 0.0020672588 0.0050044227 0.012758784

conv2.weight f4 [32, 32, 3]
000000 76 93 c7 bd 1b e4 72 bd e0 20 bf bd c5 0c 3c 3d
       -0.09744923 -0.05929957 -0.09332442 0.045910615
000010 2c a6 cf 3d b0 2a 0b 3d 16 c3 c5 3c e9 d9 9d 3c
       0.10139117 0.033976257 0.024140876 0.019268947
000020 2c 6b d7 3d 1c ae 66 bd 30 32 0e bd 97 7d db bd
       0.10518488 -0.056318387 -0.03471583 -0.10717314
000030 a9 eb 0c bd 93 de 50 3c ef cd 0a 3d 8f 51 c4 bd
       -0.03440443 0.012748378 0.0338878 -0.095858686
000040 12 9e e0 bc c5 2f b7 bd 2c a2 e6 bd 1d a7 d3 3c
       -0.027419124 -0.08944658 -0.112614006 0.025836522
000050 95 fe af bd bd 7f 98 3c 66 dd 96 bd 95 e4 24 bd
       -0.085934795 0.018615598 -0.07366447 -0.040257055
000060 5c fa 26 bd f9 04 cd bd 0c 54 b8 3d 92 91 99 3d
       -0.040766105 -0.10010714 0.09000406 0.074984685
000070 8a 2d 67 bd 36 51 04 3d 85 c4 5f 3d 18 18 12 3d
       -0.056439914 0.03230401 0.054630775 0.03566751
000080 af 87 a3 bc 28 d8 cc bd c3 5d 8f 3d fc 18 fe bd
       -0.01996216 -0.10002166 0.070003055 -0.12407109
000090 a1 48 8d bc dd 6d 11 bd 22 88 2e bd 40 1d 6f bd
       -0.017246546 -0.035505164 -0.042610295 -0.058377504
0000a0 5e 02 ef bd ec 48 2d 3c 57 1d 70 3b 3d 58 b4 3d
       -0.116703734 0.010576468 0.0036638582 0.088058926
0000b0 6c ac 2e bd 89 8c b4 3d fe 05 ce ba dc dc 28 bd
       -0.042644903 0.088158675 -0.0015718339 -0.041226253
0000c0 74 bd 63 bd 88 ad b0 3b 12 ab 06 3d 57 f7 0d bd
       -0.0556006 0.0053917803 0.03287799 -0.03465971
0000d0 64 3a c4 3c 59 69 9a 3d f8 e4 18 3c e8 c2 fb 3c
       0.023953624 0.07539625 0.009331934 0.030732587
0000e0 26 be 95 3d f0 6e bd 3c cc 79 31 3d c0 89 84 3d
       0.073116586 0.023124188 0.043329045 0.06471586
0000f0 74 c2 ac 3d b2 03 86 bd ae e8 7e 3c f0 be d3 3a
       0.084355265 -0.065436736 0.015558405 0.0016154926
000100 8f 0f 42 bc 87 86 99 bb a9 42 40 3d 8f d2 ea 3d
       -0.01184453 -0.0046852264 0.046938572 0.11465942
000110 89 32 95 bd 56 22 28 3d be 88 69 3d 8d 36 cc 3b
       -0.072850294 0.04104837 0.057015173 0.006232089
000120 57 38 50 bb 50 91 77 3d 13 0b 1f 3c 79 c1 b5 bc
       -0.0031771862 0.060441315 0.00970723 -0.022186982
000130 d4 9d 22 3c 9f b8 55 3d 1a 15 93 3c 17 59 a3 bc
       0.0099253245 0.05217802 0.017954398 -0.019939942
000140 0b 9b 18 3d cd 03 6f 3d 19 6c 96 bd 91 aa f0 3c
       0.037257235 0.058353234 -0.07344837 0.029378207
000150 72 0d 38 3d ac 74 e5 3b c4 5a 8e bc b7 b1 b6 3d
       0.044934697 0.0070024338 -0.017377265 0.08920615
000160 c6 3a a5 bd f6 a1 54 bd 8f 12 79 bd c5 fd 82 3d
       -0.08067851 -0.05191227 -0.060808714 0.06396059
000170 a1 cb f9 bd 37 42 65 bc d1 e7 e3 bd a5 8d ae bc
       -0.12197042 -0.013992838 -0.111282 -0.021307776
000180 40 51 37 3d df 60 21 bd fb b8 aa 3d 65 02 a6 3c
       0.04475522 -0.039399024 0.083360635 0.020264814
000190 92 36 61 bd 38 9a e6 3b 2d 2c 54 3d e3 63 92 bc
       -0.054983683 0.0070374273 0.05179994 -0.017869895
0001a0 66 3f b6 3d 5e ce a2 bd 21 c7 c8 3c 31 0f 73 3d
       0.08898811 -0.07949518 0.024509015 0.05934066
0001b0 d8 be 12 3d ea 8c 72 3c 1d 4d a9 3c 38 de 52 bd
       0.035826534 0.014804104 0.020666653 -0.051481456
0001c0 fd e8 b5 bd 68 b1 69 3b a3 87 e1 bc fb 76 b1 3d
       -0.088823296 0.003565872 -0.027530497 0.08665272
0001d0 bb 73 80 3d 4d de ca 3c 2d 51 8d bd 4c d6 bd bd
       0.06272074 0.024764204 -0.06900249 -0.092693895
0001e0 3c c4 04 be 3c 1e d2 3c bd 17 b9 bd 15 50 0b be
       -0.12965482 0.025649182 -0.09037731 -0.13604768
0001f0 9b ba 60 bd 05 d1 c1 bd 2f f3 41 bd 3e 66 97 bd
       -0.05486546 -0.094636954 -0.04735106 -0.07392548
000200 42 a1 91 bd a7 1f c1 3d 66 e2 f9 3a 3c fa 41 3d
       -0.071108356 0.09429865 0.0019064664 0.047357783
000210 5d bf 9b 3c 64 2c 91 bc 0f 43 99 bc 4c 78 c9 bd
       0.019012148 -0.017721362 -0.018708734 -0.09837398
000220 f7 9c 98 bd d6 8e 39 3d 2f 56 92 bb 74 24 e4 bd
       -0.07451814 0.045302235 -0.0044658403 -0.111397654
000230 f9 bd b9 3d 6b 6c bc 3c 8e 53 ae bd 58 7e f3 bd
       0.090694375 0.023000916 -0.085120305 -0.118893325
000240 a8 81 8f bd 5f 18 99 bd f6 56 77 3d 5b d8 8d 3d
       -0.07007152 -0.074753515 0.060385667 0.06926032
000250 cd 12 4d 3b 5c 38 ea bd 98 7a 3d bd df f4 a4 bd
       0.0031291724 -0.11436531 -0.046259493 -0.08054518
000260 73 f2 77 3d ce 33 57 bd d2 fe b6 bb d7 28 5c bd
       0.060533952 -0.05253964 -0.005584576 -0.053749885
000270 5b e0 7f 3d 55 9b 6b 3d ff e2 c1 3c aa 85 5a bc
       0.06246982 0.057521183 0.02366781 -0.013337532
000280 1b e4 c3 bc 3b 69 e7 bb f2 ed c3 bd 25 1f 8b 3d
       -0.02391248 -0.007062105 -0.09566869 0.0679305
000290 26 39 bc bd 59 bf 65 3d 53 df 20 bd 41 f7 69 3b
       -0.09190588 0.056090686 -0.03927548 0.0035700353
0002a0 72 cd 18 3d c3 d4 5f bd fd 63 7f 3c 01 67 c7 bd
       0.037305303 -0.054646265 0.015587804 -0.09736443
0002b0 2c f8 8e 3c 9c c2 00 bd 24 53 ec 3c 3b f0 c9 3d
       0.017452322 -0.031435594 0.028848238 0.098602735
0002c0 8b a3 01 3d 39 d1 25 bd 6b f0 3d bd 8f 1a 2c bc
       0.031650107 -0.040482733 -0.04637186 -0.010504379
0002d0 8d 6c 02 bd 31 f2 aa 3c 34 bc a4 bd 68 93 d9 3d
       -0.031841803 0.020867439 -0.080437094 0.10623819
0002e0 d6 97 0a 3e d0 b4 83 3d 36 a7 c4 3b 1f 73 78 3d
       0.13534483 0.064309716 0.0060013784 0.060656663
0002f0 98 31 f4 bd c1 3a d3 3d 5b 34 d0 bc 94 9d dc 3c
       -0.11923522 0.10313941 -0.02541559 0.026930608
000300 75 94 81 3c e0 69 1e bd f7 7b a5 bc 05 f5 bc 3d
       0.01581786 -0.03867519 -0.020200713 0.09226421
000310 33 61 83 bd ef ef 9c 3c fe bd d2 3c 3a 98 e1 bb
       -0.06415024 0.019157378 0.025725361 -0.006884602
000320 3d 8b ce bc 8c 39 0f be 37 5d 50 bc 7d 0d bd 3d
       -0.025212878 -0.13986796 -0.012717537 0.09231088
000330 80 d0 2e bc 09 62 6e 3d fd 3d 9a 3d 6e d1 a4 bd
       -0.010669827 0.058198962 0.075313546 -0.08047758
000340 36 47 cd bd 4b 30 9a bd d6 4c 74 3c e0 b7 df bc
       -0.10023348 -0.075287424 0.014910897 -0.027309358
000350 0b de bf 3c ef cb f5 3c 5f 79 5d bc 53 1a 53 bd
       0.023421308 0.03000447 -0.013517707 -0.051538777
000360 f2 d4 71 3a 02 cf a7 bc af 86 ad bc 60 9f 1a 3b
       0.0009225152 -0.020484451 -0.021182386 0.002359353
000370 17 8c 9c bc b5 22 9c 3d 48 80 ee ba d3 03 0f bd
       -0.019109769 0.07623807 -0.001819619 -0.034915756
000380 73 b7 b5 bd 1c bf 35 bc c0 df 06 3d 80 c9 f7 b9
       -0.08872881 -0.011092927 0.03292823 -0.0004726164
000390 2d 93 82 bd fe 33 98 3d 86 14 3c 3c 62 bb cd bb
       -0.06375728 0.07431792 0.011479503 -0.0062784413
0003a0 26 47 d5 3d f3 35 40 bd 19 ba 6a bd a9 f6 e6 bd
       0.10413961 -0.04692645 -0.057306383 -0.112775154
0003b0 81 5d 8d bc d5 66 cd 3b 2c 4a 51 bd 27 14 d7 3c
       -0.0172565 0.006268362 -0.051096126 0.026254727
0003c0 f7 32 8f 3d 05 a7 e1 3d 0f be d9 3d e8 cd 08 3d
       0.06992143 0.110181846 0.10631954 0.033399493
0003d0 5f 36 a4 3c fe f2 15 3d e8 4f e2 3b 98 5f cf 3b
       0.020045457 0.03660869 0.006906498 0.0063285343
0003e0 6e f4 81 3c c3 46 2c be 07 48 f2 bc 91 cb b4 3c
       0.015863623 -0.16823868 -0.029575361 0.022069724
0003f0 d0 eb 39 39 b7 c7 f2 bc 66 34 84 bd e0 91 37 3d
       0.00017730822 -0.029636247 -0.06455307 0.04481685

conv2.bias f4 [32]
000000 9e 20 46 39 2f 04 fb b9 24 13 67 ba f0 b1 3a ba
       0.00018894902 -0.00047877568 -0.0008814803 -0.00071218517
000010 5e e5 5f 3a 53 a9 dd b8 f7 40 71 3a 0a 8b 2c ba
       0.0008540953 -0.0001056964 0.0009203101 -0.0006581998
000020 e9 c5 90 38 b7 03 83 ba 63 1d df 39 65 5e 43 39
       6.903319e-05 -0.0009995614 0.0004255577 0.00018631814
000030 92 29 32 39 18 21 19 b6 1f 77 3b 3b 83 48 88 38
       0.00016990889 -2.281804e-06 0.0028604937 6.498492e-05
000040 ac 22 62 ba 88 db 82 38 aa 51 b8 3a 6c 61 86 3a
       -0.00086263823 6.239774e-05 0.0014062424 0.0010252423
000050 6f 4f 49 bb 51 2c f2 3a 72 27 79 b9 0c 73 1f b9
       -0.0030717512 0.0018476342 -0.00023761185 -0.0001520628
000060 c4 c6 cc 3a c4 2b 8b ba de 5e 71 b9 96 b1 04 3a
       0.0015623202 -0.0010617902 -0.00023018892 0.0005061863
000070 78 a4 b9 b9 ce b7 c2 ba f5 09 4a 3a 91 b6 33 3a
       -0.00035408488 -0.0014855803 0.0007707172 0.00068555126

bn2.weight f4 [32]
000000 c8 69 89 3f 45 33 89 3f fa e2 84 3f 82 d8 71 3f
       1.0735407 1.0718771 1.0381768 0.9447099
000010 07 14 74 3f 8d 0c 69 3f de 17 82 3f e1 79 7d 3f
       0.9534306 0.91034776 1.0163534 0.990141
000020 d8 c4 7b 3f 6a cf 84 3f a8 44 85 3f eb ba 76 3f
       0.98347235 1.0375798 1.0411577 0.96378964
000030 f1 b0 86 3f 90 e8 73 3f 5f ac 83 3f ec 9a 8a 3f
       1.0522748 0.9527674 1.0286978 1.0828528
000040 e2 e1 82 3f 9f 98 86 3f 0a e9 8b 3f 8e 95 70 3f
       1.0225184 1.0515326 1.0930493 0.939782
000050 37 f0 8b 3f f1 c2 82 3f 03 b8 80 3f 0e fc 7b 3f
       1.0932683 1.0215741 1.0056156 0.9843148
000060 6a cb 88 3f e3 48 7c 3f c5 54 7c 3f 18 f3 83 3f
       1.0687077 0.98548716 0.9856685 1.0308561
000070 d7 56 84 3f ef 70 7b 3f 72 a0 87 3f 4e a0 70 3f
       1.0339001 0.982192 1.0595839 0.93994606

bn2.bias f4 [32]
000000 fa 27 32 bc dc 7f f6 bb 24 f1 81 bc 00 31 80 bb
       -0.010873789 -0.0075225662 -0.015862055 -0.0039120913
000010 2f 60 ca bb 79 73 9b 3c d0 bf 69 3d c2 99 13 3d
       -0.0061760168 0.01897596 0.057067692 0.036035307
000020 6e 89 4c 3c 40 76 de 3c bf 65 d4 bc 14 02 a2 bc
       0.012483938 0.027155995 -0.025927423 -0.019776382
000030 d1 8f e2 bc b2 78 b2 bc f6 cd 0f 3d d0 d0 83 3d
       -0.027656468 -0.021786068 0.03510853 0.06436312
000040 97 20 7a 3c 68 a0 24 bd 05 bc 11 3d 39 a4 89 bc
       0.015266559 -0.040192038 0.0355797 -0.01680194
000050 95 76 92 bc ef 46 4f bd 90 c3 f5 3c 25 6b 2c bd
       -0.01787881 -0.050604757 0.030000478 -0.04209437
000060 9c fc b9 bc 72 21 9c 3c 52 21 af bc d5 02 16 bd
       -0.022703461 0.019058917 -0.021378193 -0.036623795
000070 2d cc db bc 63 f3 40 bb 8a 56 89 bb 4e 09 a1 bc
       -0.026830757 -0.0029441945 -0.0041912245 -0.019657757

bn2.running_mean f4 [32]
000000 79 73 cb be 7c f6 e6 be ad 0f 3c bf e8 cf e5 3e
       -0.39736536 -0.45109928 -0.7346142 0.44885182
000010 a2 19 25 3e c5 37 67 bc 4c b6 11 be 89 24 03 bc
       0.1612306 -0.014112418 -0.14229697 -0.008004316
000020 f9 2e f7 be d6 55 59 bf 5a 57 51 bf ca 3f 57 3f
       -0.48278025 -0.848966 -0.8177391 0.8408171
000030 fb 47 0d bf 82 f8 23 3f 8a 16 af bd ae bf 66 be
       -0.5518796 0.6405107 -0.08549221 -0.22534057
000040 bb 6a a3 be 50 df bb be 70 3d 1c bf 99 a6 69 3f
       -0.31917366 -0.3669381 -0.61031246 0.9126983
000050 dd 88 0e bf 49 21 47 be c2 cd d8 be 0e a3 36 bf
       -0.55677587 -0.19446291 -0.4234448 -0.7134255
000060 f0 25 50 bf cf 7b 3c be 5b 7c 58 3f 11 14 a6 bd
       -0.8130789 -0.18406604 0.8456475 -0.08109296
000070 c8 83 8d be 3e 7b f5 be 73 9d 90 be 56 6f d7 3e
       -0.27639604 -0.4794559 -0.28245124 0.4207713

bn2.running_var f4 [32]
000000 e5 05 87 3e 52 26 92 3e 1c c9 e0 3e e1 11 98 3e
       0.26371685 0.2854486 0.43903434 0.2970114
000010 71 c7 80 3e f1 eb 8f 3e 66 d3 16 3e 34 05 20 3e
       0.25152162 0.28109697 0.1472908 0.15626985
000020 fd a7 c7 3e f6 4e 3c 3f 02 06 0d 3f 86 a6 26 3f
       0.38995352 0.73557985 0.5508729 0.65097845
000030 8d b4 cd 3e 6a 4b 16 3f 72 1e 0f 3e 82 bb 94 3e
       0.40176812 0.5870882 0.13976458 0.29049307
000040 72 34 5a 3e 3c 05 a5 3e 4c 24 2c 3f d8 41 70 3f
       0.21309069 0.32230556 0.67242885 0.9385047
000050 bf 51 1b 3f 97 6e 47 3e 84 dc cf 3e 28 d1 43 3f
       0.6067161 0.1947578 0.40597928 0.7649102
000060 25 bc 6e 3f 5d 94 87 3e 10 ff 1d 3f 82 67 6b 3e
       0.93255836 0.2648038 0.6171732 0.22988704
000070 8a 4b 1e 3e f0 e4 9c 3e c8 aa 71 3e f3 db a1 3e
       0.15458503 0.30643415 0.23600304 0.3161312

conv3.weight f4 [64, 32, 3]
000000 de d7 b5 3c 05 1b 44 3d f6 68 7f 3d 40 37 bf 3d
       0.02219766 0.04787733 0.062355958 0.0933671
000010 37 35 24 bd c8 2a b0 bd ae d9 8d bd 08 7a 2a 3d
       -0.040089812 -0.0860191 -0.06926285 0.041620284
000020 cd 0f 35 bd 44 19 98 bd f6 07 40 3c 3b 35 a2 bd
       -0.044204522 -0.07426694 0.011720648 -0.07920309
000030 16 1f 87 bc f8 dc b6 bd 65 d5 bf 39 33 94 ff bc
       -0.016494315 -0.08928865 0.0003658935 -0.031198597
000040 1d 50 e1 bc 83 16 3d 3d d2 e1 c1 bd 23 72 78 bc
       -0.027504021 0.046164047 -0.094669 -0.015163931
000050 65 90 54 bd 7a 4b bf 3d 33 ad 49 bd 60 17 73 bc
       -0.051895518 0.09340568 -0.04923744 -0.014837116
000060 18 0b 33 3d b8 da f6 bd 76 a8 a1 bd 58 cc 43 bd
       0.04371175 -0.12053436 -0.078934595 -0.0478023
000070 cf 7d c8 bd be 55 26 3d 01 ae b4 3b 55 99 8e bc
       -0.09789621 0.040609114 0.005513907 -0.017407099
000080 77 af d8 bb e4 58 e9 3c f0 5a 3f bc 8c fa fb bc
       -0.006612714 0.02848477 -0.011679396 -0.030759118
000090 82 d3 f3 bc e0 77 a4 bd 72 0c 25 3c 47 3d 90 3d
       -0.02976394 -0.08030677 0.010073768 0.07042938
0000a0 a9 e7 0e bd ad 55 9b 3d 37 df 58 3d 15 c5 d9 bc
       -0.034888897 0.07584701 0.05294725 -0.026583234
0000b0 b7 1b 3f 3d 98 76 53 3d 2e a3 d7 bd 31 71 45 3c
       0.04665729 0.05162677 -0.10529171 0.012050913
0000c0 1f 8e 7f 3b bb c2 e3 3c 19 50 cc 3d 45 75 bb bd
       0.0038994623 0.027802816 0.09976215 -0.09153227
0000d0 cf ea 47 3d 98 ea 1a 3d c3 86 09 be 1b 73 d4 3d
       0.048807915 0.037821382 -0.13430314 0.10373517
0000e0 d0 2f e0 3c 6c b4 a0 3d cd 85 6b 3d 27 51 d3 bd
       0.027366549 0.07846913 0.05750065 -0.10318213
0000f0 bb 7c a6 bd 31 e0 f5 bc d4 42 97 3d 97 b7 bf bc
       -0.08129259 -0.03001413 0.07385793 -0.023402972
000100 cc 9a 0e be 52 f8 8e 3d 66 37 2f bc ea 48 51 3b
       -0.13926238 0.06980957 -0.01069436 0.003193433
000110 c8 00 94 3d 09 83 1f bd ce a5 69 3d e5 cc 8f 3c
       0.072267115 -0.038943324 0.05704289 0.017553756
000120 a7 12 ad bc e4 71 23 bc c7 9d 2a 3d a6 f2 9f 3d
       -0.021127058 -0.009975884 0.041654374 0.078099534
000130 7f 2d 28 bd cf 81 50 3d 74 6b 6b bd 16 6d e3 bd
       -0.041059013 0.050905045 -0.057475522 -0.11104791
000140 ad 87 4d bd 19 f4 b2 bd 24 99 6f 3b 2c 34 0e 3b
       -0.05017822 -0.08737964 0.0036559785 0.0021698577
000150 8f a5 84 bc d4 aa 92 bd 3d 1a 36 3d 73 4e cd 3c
       -0.016192226 -0.07161489 0.044458617 0.025061822
000160 9a 97 4d bd ef 22 61 3c 1a c1 41 3d 8f af 67 bd
       -0.050193407 0.013741239 0.047303297 -0.05656391
000170 6a b5 37 3b 55 31 b2 bc df 0d b4 3d 44 80 2a 3c
       0.0028031715 -0.021752039 0.08791708 0.0104065575
000180 74 14 b4 bd 41 0e dc 3d 18 0f b4 bd 83 88 c9 3a
       -0.087929636 0.10744906 -0.087919414 0.0015375767
000190 10 9f 1d bd df 9d b4 bc a4 bb a6 3d 8f c0 79 3d
       -0.038481772 -0.022047935 0.08141258 0.060974654
0001a0 97 0a 60 bc 20 c0 65 bd 74 b6 71 3c d9 d7 93 bd
       -0.0136744 -0.056091428 0.014752973 -0.07218904
0001b0 eb 64 43 bd 54 07 0b 3d 63 f2 bd bd 36 b4 82 bc
       -0.047703665 0.033942536 -0.09274747 -0.015955072
0001c0 b5 9b 85 bc e1 4d 60 3d 03 bc a1 bd c0 47 c1 3c
       -0.016309598 0.05476177 -0.078971885 0.023593783
0001d0 ff d3 a0 bc 9f ba bd 3d 4e 51 96 bc b3 ee c6 bd
       -0.019632338 0.09264111 -0.018349316 -0.09713497
0001e0 9d 20 42 bd a5 a1 a5 3d f6 3a 25 3d fc 28 27 3d
       -0.047394384 0.08087472 0.040339433 0.04081057
0001f0 cc e3 b1 3d 40 4a 33 3c 63 e9 3a 3a 11 64 77 bd
       0.08686027 0.010942996 0.0007130114 -0.060398165
000200 7a 00 16 be af 9f de 3c 94 f8 a3 3d e3 d2 11 bd
       -0.1464862 0.027175752 0.08006397 -0.035601508
000210 25 0f 1f bd 5a fc 2a 3d 44 5d 26 3d d7 15 84 3d
       -0.038832802 0.041744567 0.04061629 0.06449478
000220 88 d2 44 bc 90 54 01 bc 02 40 be bd fc fd 32 3d
       -0.012013085 -0.007893696 -0.09289552 0.04369925
000230 01 7d cc bc 5b 1b 21 3d fa 55 6b 3d 22 98 be 3c
       -0.02496195 0.03933273 0.05745504 0.023265902
000240 bb ee 3c bd 63 a8 2d bc 0e a8 1f bd 78 ae d5 3d
       -0.04612611 -0.010599229 -0.03897863 0.10433668
000250 dc eb 9f 3d 57 3e f8 bc 95 ff ed 3d 76 03 a7 3d
       0.078086585 -0.030303163 0.11621014 0.08154957
000260 08 b4 9d 3d 58 77 07 3d 46 32 1d 3d 7c f1 0b bd
       0.07700354 0.0330728 0.038378023 -0.034165844
000270 ff d2 88 bd 16 0f be 3d 42 0c 23 bd dd 86 39 3d
       -0.06680869 0.09280221 -0.03980661 0.04529463
000280 fe e0 5c bd cb 5f d2 3b 10 4f 0a 3d f4 de 1c 3d
       -0.053925507 0.006420111 0.033766806 0.038298562
000290 62 d7 24 3d 73 51 1b 3d a5 03 37 bd 22 ca b0 3d
       0.040244468 0.037919473 -0.04468121 0.08632304
0002a0 b3 f0 8e 3d e6 e3 c7 3d 8e 73 a2 bd b6 f4 59 bd
       0.069795035 0.09760265 -0.079321966 -0.05321189
0002b0 3d 69 79 bd d7 10 64 3a c8 c5 67 3d b2 dd 84 bd
       -0.06089138 0.0008700019 0.056585103 -0.064875975
0002c0 e4 b3 f5 3b 11 f1 28 3d b4 cb e6 bd e9 86 91 3c
       0.0074982513 0.041245524 -0.11269322 0.017764525
0002d0 0e ba 04 bb 62 a9 9b bd 37 65 e1 bc 8b c5 79 3d
       -0.0020252499 -0.076006666 -0.027514083 0.060979407
0002e0 a9 90 90 bc c1 0c 02 3c aa 2b 4f bd 91 99 d3 bb
       -0.017647104 0.007937611 -0.05057875 -0.0064575155
0002f0 cb dc 88 bd aa a8 90 bd c1 d2 49 3d f2 9b 71 3b
       -0.06682738 -0.0706342 0.049273256 0.0036866632
000300 21 78 dc bd cf 47 99 bd 5f e5 04 bd df c0 d1 bc
       -0.107651 -0.074843995 -0.032445308 -0.025604663
000310 e3 29 85 3d f9 c4 81 3d 6b 03 34 bd b7 8d 44 bc
       0.0650213 0.06336398 -0.043948572 -0.011996678
000320 8b e7 2c 3d c4 db 62 bd 07 c1 cc bd 2b 81 0e bc
       0.042213004 -0.055385366 -0.099977545 -0.008697788
000330 cd 72 ad 3c c2 6a 7b 3b f3 0e 56 3d a9 f0 c4 bd
       0.021172905 0.0038363193 0.05226035 -0.09616215
000340 93 b0 d9 bc 07 74 99 3d 42 8b ab bd 9d 75 32 bd
       -0.026573455 0.074928336 -0.08376171 -0.043569196
000350 eb 28 33 3d 04 6c 53 bd ef 31 9d bd 87 3c 51 bd
       0.043740194 -0.051616684 -0.0767554 -0.051083114
000360 08 2c 9c bd 19 1c d1 bd 35 ff 61 bd b7 1a c9 bd
       -0.07625586 -0.10210437 -0.055175025 -0.098195486
000370 3e f1 87 bd 43 bd 43 bc 71 15 81 3d 9e 3a ff 3d
       -0.0663781 -0.011946979 0.06302918 0.12462352
000380 7c 91 de 3d 7b ea 09 3c 1c 77 81 3d c0 94 e9 bc
       0.10867593 0.008417721 0.063215464 -0.028513312
000390 08 81 92 bd 61 10 a6 3d 4c b6 69 3d 55 83 9b 3c
       -0.07153517 0.08108593 0.057058617 0.018983522
0003a0 d3 ba 4e 3d d2 0f 44 bc 47 6c 8a 3d 87 a3 ac 3c
       0.05047114 -0.0119666625 0.067589335 0.02107407
0003b0 0d b4 38 bd 15 88 27 3d 69 ed 86 3c 57 39 8a bc
       -0.045093585 0.040901262 0.016470628 -0.016873045
0003c0 d9 ee 3b 3c a3 72 33 3d 66 13 11 3d ad bc 8c 3d
       0.01147052 0.043810498 0.03541889 0.068719245
0003d0 ee 11 61 3d bd 77 9d bb e1 d2 18 3e 22 88 ed bd
       0.05494874 -0.0048055337 0.14924194 -0.11598231
0003e0 78 59 48 bd 74 38 06 3a 08 aa 30 bc 76 e9 c5 bd
       -0.04891345 0.00051201065 -0.010782726 -0.0966367
0003f0 7e c4 dc 3d 18 f1 84 bd 57 99 fb 3d 34 9e 0a bd
       0.107796654 -0.064912975 0.12285107 -0.03384228

conv3.bias f4 [64]
000000 54 06 5d b8 70 07 62 39 11 41 ec 39 94 da 84 b7
       -5.26964e-05 0.0002155581 0.00045061906 -1.583741e-05
000010 25 1b 04 39 81 6d 0f ba c0 4a e6 38 42 3e 72 ba
       0.00012598613 -0.00054713344 0.00010981178 -0.00092408445
000020 54 e5 54 39 d9 79 55 39 3e 55 32 35 65 f2 03 b9
       0.00020303327 0.00020358655 6.643421e-07 -0.00012583433
000030 b1 7b 16 ba f9 cd f8 b7 2a c1 a6 b9 cf 08 29 b9
       -0.00057404774 -2.9659817e-05 -0.00031805906 -0.00016120377
000040 9a 0d b1 b8 d6 80 98 b8 17 37 38 3a c4 f3 3a 39
       -8.442551e-05 -7.2719224e-05 0.0007027252 0.00017829152
000050 e3 3e 45 ba a8 74 94 b8 90 29 9e 38 cf e5 2a 3a
       -0.00075243245 -7.078919e-05 7.541769e-05 0.00065192295
000060 2d f0 8c b8 1c aa 60 b9 dc 23 55 39 2a d1 0d b9
       -6.7204564e-05 -0.00021425675 0.00020326622 -0.00013524728
000070 07 25 45 38 38 86 0e ba 2a 07 5b 3b ab 05 ec 38
       4.7002944e-05 -0.000543687 0.0033421018 0.00011254413
000080 c7 54 b8 b8 09 27 31 3a 38 00 80 b7 06 ec b6 37
       -8.789595e-05 0.0006757831 -1.5258891e-05 2.1805998e-05
000090 26 d7 ea b9 9b 12 a3 b7 78 10 7a b8 7a cb df b8
       -0.00044792256 -1.9439778e-05 -5.9619982e-05 -0.00010671369
0000a0 88 49 b3 38 0e f9 31 39 06 a4 ca b8 35 c0 6e ba
       8.5490814e-05 0.00016972816 -9.662662e-05 -0.00091076206
0000b0 00 ab 1b 36 f5 91 8e b8 9a a9 85 ba d1 9c 8f 39
       2.3196335e-06 -6.798274e-05 -0.001019764 0.00027391923
0000c0 75 f8 5e 39 c9 49 d4 b7 7f 8b 46 b9 f8 1b 05 39
       0.00021264127 -2.5306728e-05 -0.00018934718 0.00012694288
0000d0 29 c4 ae 39 9a 00 d4 b9 4d ab 33 ba 83 d7 c3 b9
       0.00033334017 -0.0004043624 -0.0006853834 -0.00037353867
0000e0 ed 32 a0 b9 35 1d 10 b9 11 2b 05 38 5d a1 5e 39
       -0.0003055552 -0.0001374379 3.174978e-05 0.00021231682
0000f0 e1 d7 86 ba f1 a3 ef b9 12 9a 3a b8 08 8d f9 38
       -0.0010287726 -0.00045707778 -4.4489345e-05 0.00011899514

bn3.weight f4 [64]
000000 21 69 7c 3f e5 56 7e 3f cc 5f 86 3f e9 d2 79 3f
       0.98597914 0.9935134 1.0497985 0.9758745
000010 55 19 86 3f c5 21 84 3f 3a 44 69 3f f2 a4 88 3f
       1.0476481 1.0322806 0.9111973 1.0675337
000020 fd 2a 83 3f b4 c8 82 3f 84 c4 80 3f a9 3d 82 3f
       1.0247494 1.02175 1.0059972 1.0175067
000030 55 7d 80 3f 7f e0 6b 3f 5a 23 85 3f 4f d4 66 3f
       1.0038248 0.9213943 1.0401413 0.9016771
000040 df 12 64 3f d9 7c 83 3f 45 c9 85 3f 0e e8 80 3f
       0.89091295 1.0272475 1.0452048 1.0070817
000050 24 ce 8b 3f d4 ca 80 3f 94 3f 69 3f 3a 2d 84 3f
       1.0922284 1.0061898 0.9111264 1.0326302
000060 12 3e 84 3f 62 2b 82 3f ee b0 87 3f 18 bf 6b 3f
       1.0331442 1.0169489 1.060087 0.9208846
000070 cd 43 8b 3f 09 41 77 3f 62 73 83 3f d3 fe 69 3f
       1.0880066 0.9658361 1.0269587 0.91404456
000080 d8 17 7e 3f 50 3c 86 3f 98 0d 86 3f e1 d8 6c 3f
       0.9925513 1.0487156 1.0472898 0.9251843
000090 75 57 89 3f dd ba 64 3f 7e c3 85 3f 69 f1 84 3f
       1.0729815 0.8934763 1.0450284 1.0386173
0000a0 0a f7 80 3f 68 36 7e 3f 79 1c 85 3f c0 26 86 3f
       1.007539 0.9930177 1.0399314 1.0480576
0000b0 45 73 81 3f 68 69 87 3f 81 29 89 3f 97 a7 89 3f
       1.0113302 1.0579042 1.0715791 1.0754269
0000c0 9d b2 77 3f 9b 4e 64 3f f5 8f 89 3f bc 21 88 3f
       0.9675692 0.8918244 1.0747057 1.0635295
0000d0 04 e9 87 3f 9f 0c 85 3f c8 50 87 3f a4 3d 72 3f
       1.0617986 1.0394477 1.0571527 0.94625306
0000e0 54 3c 71 3f 1f 47 87 3f 3e d3 87 3f b7 ed 87 3f
       0.9423268 1.056858 1.0611341 1.061942
0000f0 13 91 77 3f 64 78 83 3f 73 0b 7d 3f 80 a7 67 3f
       0.9670574 1.0271115 0.98845595 0.9048996

bn3.bias f4 [64]
000000 8d 53 eb b9 ea 22 08 3c 65 87 23 bd ed 77 68 bd
       -0.00044884943 0.008309105 -0.039924044 -0.056754995
000010 5c d4 2a 3d cc d1 60 bc 4e 60 bb 3a d8 f1 ff bc
       0.041706428 -0.0137218945 0.0014295669 -0.03124325
000020 2e e6 29 bd 97 46 b0 3c 7b 0f b0 3c 40 f4 41 bc
       -0.041479282 0.021518035 0.021491757 -0.011838019
000030 8a c4 11 3b 04 bc d0 b9 b3 3c 28 bd 2e fd 8a bc
       0.002224239 -0.00039812934 -0.041073512 -0.016966429
000040 97 28 8d 3b 30 f1 1d 3d 5d 00 9b bc 63 c6 3e bd
       0.004307817 0.038560092 -0.018921072 -0.046575915
000050 91 05 f3 bc c1 db 43 3b bf f2 58 3d e8 da 6a 3b
       -0.02966574 0.0029885622 0.052965876 0.0035836045
000060 78 57 02 bb 57 08 b8 3c 78 ac 5d 3d d7 b9 f4 3c
       -0.0019888561 0.022464914 0.054119557 0.029873772
000070 c2 aa 15 bd af b1 cb bc 73 fe b9 3b 6a b3 f4 3b
       -0.0365398 -0.024865 0.0056760847 0.007467677
000080 9d 3a 41 3c 59 12 a5 bb a2 dd 7e bd 3a 19 a2 3c
       0.01179376 -0.0050375876 -0.062223084 0.01978742
000090 b9 33 5d 3b 5d 5b 90 3c 54 c5 1d bd 21 3e 99 3c
       0.0033752753 0.01762169 -0.038518265 0.018706383
0000a0 2a 51 ec 3a d7 e8 2a 3d 54 da 4c bd 2f 69 12 bd
       0.001802956 0.04172596 -0.0500129 -0.035744842
0000b0 da 72 92 3c 63 5d b0 bd 6e 32 0b bd d8 9b 81 bd
       0.017877031 -0.08611562 -0.03398364 -0.06328553
0000c0 b0 10 35 3d 84 c7 f3 bc 96 bb 3b bc 01 45 14 3c
       0.044205368 -0.029758222 -0.011458298 0.009049655
0000d0 5f db 98 3c ac ce 0a 3b 12 9d 84 3c be e9 66 3c
       0.018659292 0.0021180315 0.016188178 0.014093814
0000e0 ef 31 4b bc 9e 42 ec 3a 6e 1d 38 bd 25 72 08 bc
       -0.012402042 0.0018025225 -0.04494994 -0.008327995
0000f0 0a 54 07 bb d8 35 86 bd 89 19 ce bc 55 eb a7 bc
       -0.0020649456 -0.06553239 -0.02515866 -0.020497957

bn3.running_mean f4 [64]
000000 03 f0 9c be b0 f1 4b bd e3 d0 b2 bd 29 53 e3 be
       -0.30651864 -0.049791038 -0.08731248 -0.44399384
000010 19 c8 35 bf bb 1a d4 be a8 39 6b 3f 1e e3 02 3e
       -0.7100845 -0.41426644 0.9188485 0.12781951
000020 4f e6 bd be 6e 60 00 bf a4 8b 36 be 14 67 88 be
       -0.37089774 -0.5014714 -0.17826706 -0.26641142
000030 3f 3b 1c bf 84 cd 5f 3f ec 3f ff be 02 e1 bb bd
       -0.610279 0.87422967 -0.49853456 -0.09173776
000040 80 f4 13 3e 9d df b5 3e f6 97 c3 be e0 dc 27 bf
       0.14448738 0.35522166 -0.38201874 -0.65571404
000050 dc 7a 44 bf 56 d0 a0 be 45 c5 0f 3f d6 9d 43 3d
       -0.7674997 -0.31408948 0.56160384 0.047757946
000060 c3 b6 9e be 64 04 48 bf 79 ef 3b be da f0 bc 3e
       -0.3099881 -0.781317 -0.1835307 0.36902505
000070 e0 fc c3 be c1 b5 fc be f1 3d 26 3f 59 bd 11 3d
       -0.38278866 -0.49357417 0.64938265 0.035580967
000080 1a a1 5b bf 1b 3e 76 3e f8 42 10 bf 25 00 ba be
       -0.85792696 0.24047129 -0.56352186 -0.36328235
000090 34 75 43 be e1 23 6b 3e 8c 43 0b be c5 56 91 be
       -0.19087678 0.22962905 -0.13599986 -0.28386512
0000a0 20 1e 22 bf 08 7a a4 be 1d 9f 01 bf 67 9e 89 be
       -0.6332722 -0.32124352 -0.5063341 -0.26878664
0000b0 9d 97 13 bf 22 30 32 bf 41 b0 c3 be 3c 32 31 bf
       -0.5765322 -0.69604695 -0.3822041 -0.69217277
0000c0 2b 92 19 3e 57 23 01 3f cc 54 62 bf b3 54 c0 be
       0.14997165 0.5044455 -0.8841064 -0.3756462
0000d0 08 64 aa be 16 e8 6f bf 89 2a 38 bd 10 8e 99 3e
       -0.33279443 -0.9371351 -0.04496244 0.29991198
0000e0 33 b5 6d 3f bb de f0 be 62 15 12 bd 42 f5 2e be
       0.92854613 -0.4704493 -0.035664923 -0.17085746
0000f0 37 40 1a bf a2 f6 0b bf 97 b9 00 be 49 aa cc 3e
       -0.60254234 -0.54673207 -0.12570797 0.39973667

bn3.running_var f4 [64]
000000 c3 8c 25 3e b6 0d 28 3e 59 1d bc 3d ea d1 4f 3e
       0.16166978 0.1641148 0.09185285 0.2029492
000010 da 33 0f 3e c6 91 09 3f ad 8d a5 3e 74 7c 1c 3e
       0.13984624 0.5373806 0.32334653 0.1528185
000020 62 18 2e 3e c5 5f 2c 3e 2c 9d 9a 3e b1 72 da 3d
       0.17001489 0.16833408 0.30198038 0.10666407
000030 75 84 cf 3e 66 5f 51 3f df c8 cc 3e 05 d7 f1 3d
       0.40530744 0.8178619 0.39997002 0.1180859
000040 6b da 51 3e 4a 39 22 3e e0 e1 54 3e 56 5b df 3d
       0.20493476 0.15842167 0.2078929 0.10906093
000050 ff 6d d1 3e 38 78 b9 3e 41 a6 55 3e 29 b7 d1 3d
       0.40904233 0.36224532 0.20864202 0.10240013
000060 21 0e 29 3e e3 21 4e 3e 9d 4a 53 3e 00 bc 40 3e
       0.16509296 0.20130114 0.20633931 0.18821716
000070 64 98 5c 3e de 9a 10 3e 9f e9 df 3d 30 87 82 3e
       0.21542507 0.14121577 0.109332316 0.25493765
000080 9a 7a 72 3e 32 67 16 3e 80 d7 20 3e d6 7e 05 3e
       0.23679581 0.14687803 0.15707207 0.13036665
000090 f8 2b 3e 3e 60 67 fd 3e d4 82 92 3e e7 c4 64 3e
       0.1857146 0.4949293 0.2861544 0.22340737
0000a0 20 40 30 3e e2 c6 e6 3e 81 55 91 3e c5 da d5 3d
       0.17211962 0.4507361 0.28385547 0.104421176
0000b0 77 6c e0 3e 62 fd 25 3e 5c f5 4b 3e bd bc b3 3e
       0.43832752 0.16209939 0.19917816 0.35104933
0000c0 eb b8 30 3e b8 95 37 3f ec 9e 40 3e ef 06 91 3e
       0.1725804 0.7171283 0.18810624 0.28325602
0000d0 a6 57 6a 3e 09 92 55 3e ad c6 25 3e ea 55 31 3e
       0.22884998 0.20856489 0.1618907 0.1731793
0000e0 38 af 88 3e 72 3a 6d 3e 56 f9 98 3e 67 0e 07 3e
       0.2669618 0.23166826 0.29877728 0.13189088
0000f0 e2 f8 a7 3d c7 03 0d 3e 34 d2 13 3e f4 ac a1 3e
       0.082017675 0.13770972 0.14435655 0.31577265

conv4.weight f4 [64, 64, 3]
000000 3a fc 69 3c f3 ac d1 bb 0a 47 86 bd ee 3f b4 bb
       0.014281327 -0.006398791 -0.065565184 -0.005500785
000010 de 50 93 bd ea 7a 00 3d 4b 29 a4 bd 05 a0 e5 bc
       -0.071931586 0.03136722 -0.080156885 -0.028030405
000020 43 ce 14 3d a0 0c ed 3c a7 79 e5 3c 13 20 20 3c
       0.03632952 0.028936684 0.02801211 0.009773272
000030 99 39 c7 bc 96 3b b4 bb 40 51 ba 3b 2f 02 1e bd
       -0.024319457 -0.0055002673 0.0056859553 -0.0385763
000040 34 ca 85 bd 25 8b 3d 3d 1c e3 25 3d a8 0e 46 ba
       -0.06532708 0.046275277 0.04049979 -0.00075552845
000050 c9 4e 87 bd 99 96 42 bd f3 0c 79 3d ca d4 43 bd
       -0.06606824 -0.047506902 0.060803365 -0.047810353
000060 a9 a2 d1 bc 68 79 17 3c 69 db 59 3c 97 77 da 3c
       -0.025590258 0.009245254 0.01329694 0.026668353
000070 46 ed 07 3d f6 dc 82 bd c3 ef 11 3d 2a dd 4c bd
       0.033185266 -0.06389801 0.035629045 -0.050015606
000080 c1 66 9a 3c 82 83 ed bd 72 b9 17 bd 26 c6 91 3d
       0.018847825 -0.11597349 -0.03704209 0.07117872
000090 ed 44 46 bc 41 d3 07 3c 7c cc b7 3b 9b 52 3e 3d
       -0.012101394 0.008290113 0.0056090932 0.046465497
0000a0 ff 56 99 bc 41 12 43 3d 9b 5c a3 3c 25 ed 3d 3c
       -0.01871824 0.04762483 0.019941619 0.011592184
0000b0 95 66 ca 3c d9 d4 70 3c 12 07 88 3d 77 6c 58 3d
       0.024707118 0.014699184 0.066419736 0.052837815
0000c0 b0 25 39 bd f5 4c 33 3d 0a 65 23 bd 81 e0 94 bd
       -0.045201957 0.043774564 -0.03989128 -0.07269383
0000d0 3b 2d e2 3c c1 39 bd bd bc 68 28 3d 9c 63 95 bd
       0.027609458 -0.09239531 0.041115507 -0.072943896
0000e0 cf 93 8a bd 66 a4 73 bd be a0 d9 bb 5f b2 80 3c
       -0.067664735 -0.059482954 -0.0066414764 0.015710054
0000f0 6c 67 df bd e8 96 14 3d f7 00 a1 bc 11 b4 d0 3d
       -0.10908398 0.036276728 -0.01965378 0.10190595
000100 41 1b 88 bd bd 5c b5 bc 22 c2 0b ba 58 f9 2b bd
       -0.06645823 -0.022138948 -0.0005331357 -0.04198584
000110 66 78 1a bd 22 b6 5a bd 75 d2 c7 bd a2 b1 d0 3c
       -0.037712477 -0.05339635 -0.09756938 0.025475327
000120 d2 ae b7 3c 16 d2 84 bc 2b 39 86 bc 09 b1 2f 3d
       0.022422228 -0.016213458 -0.016384682 0.042893443
000130 85 fe 98 3d c4 3b ab 3b ba 17 7c 3c cb 5d 3d 3c
       0.07470421 0.0052256305 0.015386516 0.0115580065
000140 4e 12 42 3c 18 63 15 bd bf c1 db 3a 6c 9a 7c 3d
       0.0118451845 -0.036471456 0.0016766115 0.061670706
000150 cd d6 ad 3d 0f ad dc bc b7 4c f1 3d d3 cf 20 bc
       0.084882356 -0.02693799 0.1178221 -0.009815174
000160 61 f9 74 3d 57 63 2e bd 78 d8 5d bc 2c 2d f7 3c
       0.05980814 -0.042575207 -0.01354038 0.030172907
000170 b6 a5 d7 bc e3 58 8c 3c ea d8 36 3d 9a 10 ca bd
       -0.026324134 0.017132228 0.04464046 -0.09866448
000180 b6 38 9b 3d de 81 3b bd 61 04 32 3d ea a0 83 3d
       0.07579176 -0.045778148 0.043461207 0.06427176
000190 cb ee 1c bc 68 c6 9d 3d 11 fc e6 3c 89 a8 be 3d
       -0.009578417 0.077038586 0.028196367 0.09309489
0001a0 7f 09 97 bd 51 ed a1 3c 03 39 24 bd 35 94 8c 3c
       -0.07374858 0.019766482 -0.040093433 0.017160514
0001b0 4c 3c a4 bd 43 35 e2 bd 06 ba fe 3b 26 14 8f bd
       -0.08019313 -0.11045315 0.0077736406 -0.06986265
0001c0 6f 32 9f 3c 85 20 2d 3d e1 f9 7f 3d e3 c6 89 bd
       0.019433228 0.04226734 0.062494162 -0.06727388
0001d0 57 6c 2d 3d 2f 9e 6a 3d e6 55 8b bd 00 07 48 bd
       0.04233965 0.057279762 -0.06803493 -0.0488348
0001e0 f5 a7 37 bd 1c 48 37 bd 82 46 15 bd 08 42 8d bd
       -0.04483791 -0.044746503 -0.036444195 -0.0689736
0001f0 74 13 b0 3d 57 d2 b7 bb b0 11 60 bc e2 a3 cf 3b
       0.085974604 -0.0056097913 -0.013676092 0.006336675
000200 f6 3b c6 3c a2 53 85 3d f9 fc cd 3b 9b c9 a4 3d
       0.024198513 0.06510092 0.00628626 0.08046266
000210 ac 2f 90 bc c3 33 91 3c df 54 b9 bd 65 da bb ba
       -0.017600857 0.017724877 -0.09049391 -0.0014332054
000220 3c 1a 9f 3b 61 52 06 bd 79 b0 ed bd ad 77 4b ba
       0.0048554223 -0.032793406 -0.11605925 -0.00077616685
000230 ae b8 7f 3d a7 cc 89 bc 23 89 65 3d 3c 0e be bd
       0.062431984 -0.016821219 0.056038987 -0.09280059
000240 e2 d9 86 bd 04 be a3 3a 7c c2 67 bc c4 b5 07 3d
       -0.065845266 0.0012492542 -0.01414549 0.03313233
000250 44 91 85 3c 7d 2e 8c bb 63 c0 a6 bd d7 63 91 3d
       0.01630462 -0.004278003 -0.081421636 0.07099121
000260 a1 5e 20 bd 5f 0f 0a 3c cf d5 8b 3b e6 c8 ff 3d
       -0.039152745 0.008426516 0.0042674313 0.1248949
000270 d2 5a ca 3c 33 7d 1f bd 88 3b 42 bc a5 81 8f bd
       0.02470151 -0.03893776 -0.011855014 -0.070071496
000280 3a 7a 36 bd 19 a9 52 3d 60 40 e0 39 86 ce bb bb
       -0.044550158 0.051430795 0.00042772572 -0.0057314066
000290 63 2d 59 3d 9a d3 07 bc 53 14 7d 3c 34 2d 57 bd
       0.0530218 -0.008290196 0.01544674 -0.052533343
0002a0 b2 af 44 3d 64 8f fe 3a ac 11 80 bd 34 64 4f bd
       0.04801912 0.0019421396 -0.06253371 -0.05063267
0002b0 cc fe b8 bc dd cd 38 bd a8 75 bc 3c b5 e5 ab 3d
       -0.022582434 -0.0451182 0.023005322 0.083934225
0002c0 4e b4 1c bc 1d 68 c1 bd 00 44 22 3d 80 f0 79 bd
       -0.009564472 -0.09443686 0.03961563 -0.061020374
0002d0 8c 50 af 3b a3 0c 0b bc e9 55 cd 3b e4 29 49 3d
       0.005350178 -0.0084869 0.006266345 0.049112216
0002e0 71 4a 74 3d 12 0d 09 bd 82 54 3f bc ff ed a9 3d
       0.059641305 -0.03345973 -0.011677863 0.08297347
0002f0 38 1e d3 3c 03 33 be bc 82 c5 69 bd 46 af 17 3d
       0.025771245 -0.023217684 -0.057073124 0.03703239
000300 e0 a0 e0 bc 21 ff 52 3d fd e0 0c bd 8c 0c 16 3d
       -0.027420461 0.05151284 -0.034394253 0.03663306
000310 9e 13 99 3c 14 1f 4f bc 1e e1 a6 3c fb 14 c6 3d
       0.018686112 -0.012641687 0.020371016 0.096719705
000320 1a cf 76 3d 82 4d 89 bd 56 df 4a 3d ec ee 93 bd
       0.0602561 -0.067042366 0.049529396 -0.07223305
000330 8e 38 fd 3a 6e 97 16 bd e0 a4 97 bd 50 d1 b0 3d
       0.0019319223 -0.03676551 -0.07404494 0.08633673
000340 e4 00 84 3d a8 ec 04 3d 5e ee 93 bb 57 c6 99 bc
       0.064454824 0.032452255 -0.0045144996 -0.018771334
000350 8f 68 5e bc 22 78 a7 3d 9c 9b a3 3d 18 30 e1 3d
       -0.013574733 0.081772104 0.079886645 0.10995501
000360 ef 38 3a bd e9 7e d9 bc cd d8 90 3c 6b 5b 49 3c
       -0.045464452 -0.026549773 0.017681504 0.012289862
000370 a6 fb e8 3c 90 c5 92 bd dc 10 89 3d bf 35 02 bd
       0.028440308 -0.07166588 0.06692669 -0.031789538
000380 ac 62 fa bb 07 a4 22 bd b0 da 09 bc 28 8d ee 3c
       -0.007641157 -0.03970721 -0.008413956 0.029120043
000390 42 3a 98 3d 07 d7 87 3d b6 22 4f bd e4 3d 74 3d
       0.07432987 0.0663281 -0.050570212 0.059629336
0003a0 5d f3 41 bd 63 14 c5 bc 6c 87 a2 3a 33 07 b9 bc
       -0.04735123 -0.024057573 0.0012399978 -0.02258644
0003b0 5e b9 f9 b8 ff 45 bf 3c d2 f6 e5 bc 96 5b ad bc
       -0.000119077726 0.023348806 -0.028071795 -0.021161836
0003c0 a7 66 09 bd 3b 82 5c ba 11 76 81 bb 9c 33 3c bd
       -0.033545163 -0.000841174 -0.003950842 -0.045947656
0003d0 c8 94 84 3d 94 1e 9f 3c f4 2a f9 3c bf 0e 09 3d
       0.0647369 0.01942376 0.03041599 0.03346133
0003e0 c0 37 58 bd 80 09 fb bc c4 74 a4 bd b6 14 82 3a
       -0.052787542 -0.030644178 -0.08030084 0.0009924385
0003f0 72 46 84 3c 5a b5 38 bc 74 5a 46 3c 1b 60 6f bb
       0.016146872 -0.011273706 0.012106527 -0.003652579

conv4.bias f4 [64]
000000 7b 4c 60 b9 a3 82 89 38 50 34 e5 38 3f 48 50 b8
       -0.00021390796 6.557002e-05 0.00010929315 -4.965835e-05
000010 01 e8 bd 38 0a 37 ac 37 56 f5 63 38 ee f3 68 38
       9.0554364e-05 2.0529627e-05 5.4349504e-05 5.5540288e-05
000020 72 a3 b3 38 ed 81 01 b8 d5 d9 51 39 f8 88 8a 37
       8.565829e-05 -3.0877e-05 0.00020012942 1.6514663e-05
000030 40 71 4d 35 c4 e7 2b 37 d8 e9 0e 39 b6 dc a8 b8
       7.653325e-07 1.0246356e-05 0.00013629289 -8.051975e-05
000040 bb 5f 80 b7 60 d2 b6 37 f0 30 9f b7 e4 12 af b6
       -1.5303367e-05 2.1794054e-05 -1.8977065e-05 -5.2176056e-06
000050 a9 1d 5e b8 34 5e b3 b8 9f 7b b7 b6 66 34 03 b6
       -5.2956548e-05 -8.552932e-05 -5.4682164e-06 -1.955102e-06
000060 e5 fc 65 b8 1a 73 97 38 25 55 65 36 dd 49 f7 37
       -5.483338e-05 7.2216804e-05 3.417322e-06 2.947909e-05
000070 88 a2 7c b7 e0 c0 df 37 f0 1c cf b7 21 93 b2 38
       -1.5058213e-05 2.6673486e-05 -2.4689798e-05 8.515106e-05
000080 44 f3 31 b7 91 f6 1b 38 94 43 d8 b9 8c 96 b4 38
       -1.0606662e-05 3.7184513e-05 -0.0004124908 8.6111104e-05
000090 57 ff 59 38 30 1b 34 b8 2d ad 99 b8 45 da 0d b7
       5.1974635e-05 -4.2940665e-05 -7.327865e-05 -8.455075e-06
0000a0 4c 74 ba b7 3b f7 6d 38 ba fe 77 b8 f7 8b 80 b7
       -2.2227083e-05 5.6735455e-05 -5.912662e-05 -1.5323965e-05
0000b0 d7 5f b5 37 9e 5b c7 b7 01 a5 2a 38 6e 8b c4 37
       2.162151e-05 -2.3765311e-05 4.068483e-05 2.3429948e-05
0000c0 94 7a 19 b8 f4 72 06 38 0d af 08 b8 9c 9c 62 37
       -3.6592202e-05 3.2055148e-05 -3.2587956e-05 1.3507113e-05
0000d0 a5 85 26 b9 1f 75 b1 b5 c6 d8 04 b8 5a b0 f3 b7
       -0.0001588078 -1.3221614e-06 -3.167314e-05 -2.9049977e-05
0000e0 4e c8 f1 37 f6 eb c3 37 38 68 9b 37 0a a2 1f b8
       2.8822713e-05 2.335569e-05 1.852597e-05 -3.8059465e-05
0000f0 7d 09 23 b8 4c a0 aa 38 96 4e 6a b9 7d 4d 79 b7
       -3.8871065e-05 8.136089e-05 -0.00022345255 -1.4859598e-05

bn4.weight f4 [64]
000000 52 dc 95 3f bc 08 8a 3f 0a bc 98 3f 01 f1 94 3f
       1.1707861 1.0783916 1.1932385 1.1636049
000010 78 92 91 3f 9d 16 89 3f 7c b9 89 3f 2a 02 90 3f
       1.1372824 1.0710026 1.075973 1.125066
000020 12 50 96 3f 63 56 8c 3f 9d 86 a3 3f 9e c0 87 3f
       1.1743186 1.0963863 1.2775456 1.0605657
000030 f2 03 99 3f 94 a9 96 3f 7d cb 91 3f a6 27 8c 3f
       1.1954329 1.1770501 1.1390225 1.09496
000040 bd c4 8f 3f 98 c7 8e 3f 9b 9b 93 3f 4a 28 89 3f
       1.1231915 1.1154661 1.1531862 1.071542
000050 8d 37 8d 3f c6 1c 92 3f d4 a2 95 3f ff a5 95 3f
       1.1032578 1.1415031 1.1690316 1.1691283
000060 3d ba 92 3f aa d1 93 3f 2b 96 8f 3f ed af 92 3f
       1.1463085 1.1548359 1.1217703 1.1459938
000070 be 4a 92 3f 2c cf 8c 3f d1 2d 95 3f 54 ef 8b 3f
       1.142906 1.1000724 1.1654607 1.0932412
000080 a5 9d 89 3f f9 38 8d 3f 59 c1 94 3f f4 53 91 3f
       1.0751234 1.1033012 1.1621505 1.1353745
000090 83 3d 92 3f f2 e7 8f 3f d8 ab 8d 3f 7c 17 96 3f
       1.1425022 1.1242659 1.1068068 1.1725917
0000a0 f2 ab a0 3f 09 ad 8f 3f 05 7a 8e 3f b8 e9 89 3f
       1.2552474 1.1224681 1.1130987 1.077445
0000b0 f2 d5 91 3f c1 31 91 3f d5 c3 8d 3f 6e 01 8f 3f
       1.1393416 1.1343309 1.1075388 1.1172311
0000c0 26 d6 8d 3f ce f7 93 3f 12 b4 93 3f b4 fd 8e 3f
       1.1080978 1.1559999 1.1539328 1.1171174
0000d0 4f c4 96 3f b1 95 8a 3f c7 2c 93 3f 55 62 96 3f
       1.1778659 1.0826932 1.149804 1.1748759
0000e0 26 bb 8b 3f 81 ed 8e 3f 6a 82 8e 3f ae 19 8b 3f
       1.0916488 1.116623 1.1133549 1.0867212
0000f0 fd 4c 97 3f 4e a4 91 3f 38 d6 97 3f b0 39 90 3f
       1.182037 1.1378267 1.1862249 1.1267605
